program(1.0)
[buildInfo = dict<tensor<string, []>, tensor<string, []>>({{"coremlc-component-MIL", "5.33.5"}, {"coremlc-version", "1877.40.3"}, {"coremltools-component-torch", "1.13.1+cu117"}, {"coremltools-source-dialect", "TorchScript"}, {"coremltools-version", "7.1"}})]
{
    func main<ios15>(tensor<fp32, [1, 3, 512, 512]> image) {
            tensor<fp32, []> image__scaled___y_0 = const()[name = tensor<string, []>("image__scaled___y_0"), val = tensor<fp32, []>(0x1.1c4bep-6)];
            tensor<fp32, [1, 3, 512, 512]> image__scaled__ = mul(x = image, y = image__scaled___y_0)[name = tensor<string, []>("image__scaled__")];
            tensor<fp32, [1, 3, 1, 1]> image__biased___y_0 = const()[name = tensor<string, []>("image__biased___y_0"), val = tensor<fp32, [1, 3, 1, 1]>([[[[-0x1.0f177ap+1]], [[-0x1.04924ap+1]], [[-0x1.cdf012p+0]]]])];
            tensor<fp32, [1, 3, 512, 512]> image__biased__ = add(x = image__scaled__, y = image__biased___y_0)[name = tensor<string, []>("image__biased__")];
            tensor<int32, []> var_27 = const()[name = tensor<string, []>("op_27"), val = tensor<int32, []>(1024)];
            tensor<int32, []> var_29 = const()[name = tensor<string, []>("op_29"), val = tensor<int32, []>(640)];
            tensor<int32, []> var_31 = const()[name = tensor<string, []>("op_31"), val = tensor<int32, []>(256)];
            tensor<int32, []> var_40 = const()[name = tensor<string, []>("op_40"), val = tensor<int32, []>(128)];
            tensor<int32, []> var_45 = const()[name = tensor<string, []>("op_45"), val = tensor<int32, []>(1)];
            tensor<int32, []> var_49 = const()[name = tensor<string, []>("op_49"), val = tensor<int32, []>(-1)];
            tensor<int32, [2]> var_112 = const()[name = tensor<string, []>("op_112"), val = tensor<int32, [2]>([4, 4])];
            tensor<int32, [2]> var_114 = const()[name = tensor<string, []>("op_114"), val = tensor<int32, [2]>([1, 1])];
            tensor<string, []> x_1_pad_type_1 = const()[name = tensor<string, []>("x_1_pad_type_1"), val = tensor<string, []>("custom")];
            tensor<int32, [4]> x_1_pad_1 = const()[name = tensor<string, []>("x_1_pad_1"), val = tensor<int32, [4]>([3, 3, 3, 3])];
            tensor<string, []> image_to_fp16_dtype_0 = const()[name = tensor<string, []>("image_to_fp16_dtype_0"), val = tensor<string, []>("fp16")];
            tensor<fp16, [32, 3, 7, 7]> model_backbone_layers_0_0_projection_weight_to_fp16 = const()[name = tensor<string, []>("model_backbone_layers_0_0_projection_weight_to_fp16"), val = tensor<fp16, [32, 3, 7, 7]>(BLOBFILE(path = tensor<string, []>("@model_path/weights/weight.bin"), offset = tensor<uint64, []>(64)))];
            tensor<fp16, [32]> model_backbone_layers_0_0_projection_bias_to_fp16 = const()[name = tensor<string, []>("model_backbone_layers_0_0_projection_bias_to_fp16"), val = tensor<fp16, [32]>(BLOBFILE(path = tensor<string, []>("@model_path/weights/weight.bin"), offset = tensor<uint64, []>(9536)))];
            tensor<fp16, [1, 3, 512, 512]> cast_234 = cast(dtype = image_to_fp16_dtype_0, x = image__biased__)[name = tensor<string, []>("cast_234")];
            tensor<fp16, [1, 32, 128, 128]> x_1_cast_fp16 = conv(bias = model_backbone_layers_0_0_projection_bias_to_fp16, dilations = var_114, groups = var_45, pad = x_1_pad_1, pad_type = x_1_pad_type_1, strides = var_112, weight = model_backbone_layers_0_0_projection_weight_to_fp16, x = cast_234)[name = tensor<string, []>("x_1_cast_fp16")];
            tensor<int32, [3]> concat_18 = const()[name = tensor<string, []>("concat_18"), val = tensor<int32, [3]>([1, 32, 16384])];
            tensor<fp16, [1, 32, 16384]> var_121_cast_fp16 = reshape(shape = concat_18, x = x_1_cast_fp16)[name = tensor<string, []>("op_121_cast_fp16")];
            tensor<int32, [3]> input_1_perm_1 = const()[name = tensor<string, []>("input_1_perm_1"), val = tensor<int32, [3]>([0, 2, 1])];
            tensor<int32, [1]> input_3_axes_1 = const()[name = tensor<string, []>("input_3_axes_1"), val = tensor<int32, [1]>([-1])];
            tensor<fp16, [32]> model_backbone_layers_0_0_norm_weight_to_fp16 = const()[name = tensor<string, []>("model_backbone_layers_0_0_norm_weight_to_fp16"), val = tensor<fp16, [32]>(BLOBFILE(path = tensor<string, []>("@model_path/weights/weight.bin"), offset = tensor<uint64, []>(9664)))];
            tensor<fp16, [32]> model_backbone_layers_0_0_norm_bias_to_fp16 = const()[name = tensor<string, []>("model_backbone_layers_0_0_norm_bias_to_fp16"), val = tensor<fp16, [32]>(BLOBFILE(path = tensor<string, []>("@model_path/weights/weight.bin"), offset = tensor<uint64, []>(9792)))];
            tensor<fp16, []> var_50_to_fp16 = const()[name = tensor<string, []>("op_50_to_fp16"), val = tensor<fp16, []>(0x1.1p-20)];
            tensor<fp16, [1, 16384, 32]> transpose_129 = transpose(perm = input_1_perm_1, x = var_121_cast_fp16)[name = tensor<string, []>("transpose_129")];
            tensor<fp16, [1, 16384, 32]> input_3_cast_fp16 = layer_norm(axes = input_3_axes_1, beta = model_backbone_layers_0_0_norm_bias_to_fp16, epsilon = var_50_to_fp16, gamma = model_backbone_layers_0_0_norm_weight_to_fp16, x = transpose_129)[name = tensor<string, []>("input_3_cast_fp16")];
            tensor<int32, [1]> x_3_axes_1 = const()[name = tensor<string, []>("x_3_axes_1"), val = tensor<int32, [1]>([-1])];
            tensor<fp16, [32]> model_backbone_layers_0_1_0_norm1_weight_to_fp16 = const()[name = tensor<string, []>("model_backbone_layers_0_1_0_norm1_weight_to_fp16"), val = tensor<fp16, [32]>(BLOBFILE(path = tensor<string, []>("@model_path/weights/weight.bin"), offset = tensor<uint64, []>(9920)))];
            tensor<fp16, [32]> model_backbone_layers_0_1_0_norm1_bias_to_fp16 = const()[name = tensor<string, []>("model_backbone_layers_0_1_0_norm1_bias_to_fp16"), val = tensor<fp16, [32]>(BLOBFILE(path = tensor<string, []>("@model_path/weights/weight.bin"), offset = tensor<uint64, []>(10048)))];
            tensor<fp16, [1, 16384, 32]> x_3_cast_fp16 = layer_norm(axes = x_3_axes_1, beta = model_backbone_layers_0_1_0_norm1_bias_to_fp16, epsilon = var_50_to_fp16, gamma = model_backbone_layers_0_1_0_norm1_weight_to_fp16, x = input_3_cast_fp16)[name = tensor<string, []>("x_3_cast_fp16")];
            tensor<int32, [3]> var_154_perm_1 = const()[name = tensor<string, []>("op_154_perm_1"), val = tensor<int32, [3]>([0, 2, 1])];
            tensor<int32, [4]> var_155 = const()[name = tensor<string, []>("op_155"), val = tensor<int32, [4]>([1, 32, 128, 128])];
            tensor<fp16, [1, 32, 16384]> transpose_128 = transpose(perm = var_154_perm_1, x = x_3_cast_fp16)[name = tensor<string, []>("transpose_128")];
            tensor<fp16, [1, 32, 128, 128]> x_5_cast_fp16 = reshape(shape = var_155, x = transpose_128)[name = tensor<string, []>("x_5_cast_fp16")];
            tensor<int32, [2]> var_159 = const()[name = tensor<string, []>("op_159"), val = tensor<int32, [2]>([8, 8])];
            tensor<int32, [2]> var_161 = const()[name = tensor<string, []>("op_161"), val = tensor<int32, [2]>([1, 1])];
            tensor<string, []> x_7_pad_type_1 = const()[name = tensor<string, []>("x_7_pad_type_1"), val = tensor<string, []>("custom")];
            tensor<int32, [4]> x_7_pad_1 = const()[name = tensor<string, []>("x_7_pad_1"), val = tensor<int32, [4]>([0, 0, 0, 0])];
            tensor<fp16, [32, 32, 8, 8]> model_backbone_layers_0_1_0_attn_sr_weight_to_fp16 = const()[name = tensor<string, []>("model_backbone_layers_0_1_0_attn_sr_weight_to_fp16"), val = tensor<fp16, [32, 32, 8, 8]>(BLOBFILE(path = tensor<string, []>("@model_path/weights/weight.bin"), offset = tensor<uint64, []>(10176)))];
            tensor<fp16, [32]> model_backbone_layers_0_1_0_attn_sr_bias_to_fp16 = const()[name = tensor<string, []>("model_backbone_layers_0_1_0_attn_sr_bias_to_fp16"), val = tensor<fp16, [32]>(BLOBFILE(path = tensor<string, []>("@model_path/weights/weight.bin"), offset = tensor<uint64, []>(141312)))];
            tensor<fp16, [1, 32, 16, 16]> x_7_cast_fp16 = conv(bias = model_backbone_layers_0_1_0_attn_sr_bias_to_fp16, dilations = var_161, groups = var_45, pad = x_7_pad_1, pad_type = x_7_pad_type_1, strides = var_159, weight = model_backbone_layers_0_1_0_attn_sr_weight_to_fp16, x = x_5_cast_fp16)[name = tensor<string, []>("x_7_cast_fp16")];
            tensor<int32, [3]> concat_19 = const()[name = tensor<string, []>("concat_19"), val = tensor<int32, [3]>([1, 32, 256])];
            tensor<fp16, [1, 32, 256]> var_164_cast_fp16 = reshape(shape = concat_19, x = x_7_cast_fp16)[name = tensor<string, []>("op_164_cast_fp16")];
            tensor<int32, [3]> var_165_perm_1 = const()[name = tensor<string, []>("op_165_perm_1"), val = tensor<int32, [3]>([0, 2, 1])];
            tensor<int32, [1]> x_kv_1_axes_1 = const()[name = tensor<string, []>("x_kv_1_axes_1"), val = tensor<int32, [1]>([-1])];
            tensor<fp16, [32]> model_backbone_layers_0_1_0_attn_norm_weight_to_fp16 = const()[name = tensor<string, []>("model_backbone_layers_0_1_0_attn_norm_weight_to_fp16"), val = tensor<fp16, [32]>(BLOBFILE(path = tensor<string, []>("@model_path/weights/weight.bin"), offset = tensor<uint64, []>(141440)))];
            tensor<fp16, [32]> model_backbone_layers_0_1_0_attn_norm_bias_to_fp16 = const()[name = tensor<string, []>("model_backbone_layers_0_1_0_attn_norm_bias_to_fp16"), val = tensor<fp16, [32]>(BLOBFILE(path = tensor<string, []>("@model_path/weights/weight.bin"), offset = tensor<uint64, []>(141568)))];
            tensor<fp16, [1, 256, 32]> transpose_127 = transpose(perm = var_165_perm_1, x = var_164_cast_fp16)[name = tensor<string, []>("transpose_127")];
            tensor<fp16, [1, 256, 32]> x_kv_1_cast_fp16 = layer_norm(axes = x_kv_1_axes_1, beta = model_backbone_layers_0_1_0_attn_norm_bias_to_fp16, epsilon = var_50_to_fp16, gamma = model_backbone_layers_0_1_0_attn_norm_weight_to_fp16, x = transpose_127)[name = tensor<string, []>("x_kv_1_cast_fp16")];
            tensor<int32, [3]> query_1_perm_1 = const()[name = tensor<string, []>("query_1_perm_1"), val = tensor<int32, [3]>([1, 0, 2])];
            tensor<int32, [3]> key_1_perm_1 = const()[name = tensor<string, []>("key_1_perm_1"), val = tensor<int32, [3]>([1, 0, 2])];
            tensor<fp16, [32, 32]> var_195_0_to_fp16 = const()[name = tensor<string, []>("op_195_0_to_fp16"), val = tensor<fp16, [32, 32]>(BLOBFILE(path = tensor<string, []>("@model_path/weights/weight.bin"), offset = tensor<uint64, []>(141696)))];
            tensor<fp16, [32]> var_202_0_to_fp16 = const()[name = tensor<string, []>("op_202_0_to_fp16"), val = tensor<fp16, [32]>(BLOBFILE(path = tensor<string, []>("@model_path/weights/weight.bin"), offset = tensor<uint64, []>(143808)))];
            tensor<fp16, [16384, 1, 32]> transpose_126 = transpose(perm = query_1_perm_1, x = x_3_cast_fp16)[name = tensor<string, []>("transpose_126")];
            tensor<fp16, [16384, 1, 32]> linear_24_cast_fp16 = linear(bias = var_202_0_to_fp16, weight = var_195_0_to_fp16, x = transpose_126)[name = tensor<string, []>("linear_24_cast_fp16")];
            tensor<fp16, [64, 32]> var_195_1_to_fp16 = const()[name = tensor<string, []>("op_195_1_to_fp16"), val = tensor<fp16, [64, 32]>(BLOBFILE(path = tensor<string, []>("@model_path/weights/weight.bin"), offset = tensor<uint64, []>(143936)))];
            tensor<fp16, [64]> var_202_1_to_fp16 = const()[name = tensor<string, []>("op_202_1_to_fp16"), val = tensor<fp16, [64]>(BLOBFILE(path = tensor<string, []>("@model_path/weights/weight.bin"), offset = tensor<uint64, []>(148096)))];
            tensor<fp16, [256, 1, 32]> transpose_125 = transpose(perm = key_1_perm_1, x = x_kv_1_cast_fp16)[name = tensor<string, []>("transpose_125")];
            tensor<fp16, [256, 1, 64]> linear_25_cast_fp16 = linear(bias = var_202_1_to_fp16, weight = var_195_1_to_fp16, x = transpose_125)[name = tensor<string, []>("linear_25_cast_fp16")];
            tensor<int32, [2]> var_207_split_sizes_1 = const()[name = tensor<string, []>("op_207_split_sizes_1"), val = tensor<int32, [2]>([32, 32])];
            tensor<int32, []> var_207_axis_1 = const()[name = tensor<string, []>("op_207_axis_1"), val = tensor<int32, []>(-1)];
            tensor<fp16, [256, 1, 32]> var_207_cast_fp16_0, tensor<fp16, [256, 1, 32]> var_207_cast_fp16_1 = split(axis = var_207_axis_1, split_sizes = var_207_split_sizes_1, x = linear_25_cast_fp16)[name = tensor<string, []>("op_207_cast_fp16")];
            tensor<int32, [3]> v_3_perm_1 = const()[name = tensor<string, []>("v_3_perm_1"), val = tensor<int32, [3]>([1, 0, 2])];
            tensor<fp16, []> _inversed_q_scaled_1_y_0_to_fp16 = const()[name = tensor<string, []>("_inversed_q_scaled_1_y_0_to_fp16"), val = tensor<fp16, []>(0x1.6ap-3)];
            tensor<fp16, [16384, 1, 32]> _inversed_q_scaled_1_cast_fp16 = mul(x = linear_24_cast_fp16, y = _inversed_q_scaled_1_y_0_to_fp16)[name = tensor<string, []>("_inversed_q_scaled_1_cast_fp16")];
            tensor<bool, []> input_7_transpose_x_1 = const()[name = tensor<string, []>("input_7_transpose_x_1"), val = tensor<bool, []>(false)];
            tensor<bool, []> input_7_transpose_y_1 = const()[name = tensor<string, []>("input_7_transpose_y_1"), val = tensor<bool, []>(false)];
            tensor<int32, [3]> transpose_24_perm_0 = const()[name = tensor<string, []>("transpose_24_perm_0"), val = tensor<int32, [3]>([1, 0, 2])];
            tensor<int32, [3]> transpose_25_perm_0 = const()[name = tensor<string, []>("transpose_25_perm_0"), val = tensor<int32, [3]>([1, 2, 0])];
            tensor<fp16, [1, 32, 256]> transpose_122 = transpose(perm = transpose_25_perm_0, x = var_207_cast_fp16_0)[name = tensor<string, []>("transpose_122")];
            tensor<fp16, [1, 16384, 32]> transpose_123 = transpose(perm = transpose_24_perm_0, x = _inversed_q_scaled_1_cast_fp16)[name = tensor<string, []>("transpose_123")];
            tensor<fp16, [1, 16384, 256]> input_7_cast_fp16 = matmul(transpose_x = input_7_transpose_x_1, transpose_y = input_7_transpose_y_1, x = transpose_123, y = transpose_122)[name = tensor<string, []>("input_7_cast_fp16")];
            tensor<fp16, [1, 16384, 256]> attn_output_weights_1_cast_fp16 = softmax(axis = var_49, x = input_7_cast_fp16)[name = tensor<string, []>("attn_output_weights_1_cast_fp16")];
            tensor<bool, []> attn_output_1_transpose_x_1 = const()[name = tensor<string, []>("attn_output_1_transpose_x_1"), val = tensor<bool, []>(false)];
            tensor<bool, []> attn_output_1_transpose_y_1 = const()[name = tensor<string, []>("attn_output_1_transpose_y_1"), val = tensor<bool, []>(false)];
            tensor<fp16, [1, 256, 32]> transpose_124 = transpose(perm = v_3_perm_1, x = var_207_cast_fp16_1)[name = tensor<string, []>("transpose_124")];
            tensor<fp16, [1, 16384, 32]> attn_output_1_cast_fp16 = matmul(transpose_x = attn_output_1_transpose_x_1, transpose_y = attn_output_1_transpose_y_1, x = attn_output_weights_1_cast_fp16, y = transpose_124)[name = tensor<string, []>("attn_output_1_cast_fp16")];
            tensor<int32, [3]> var_238_perm_1 = const()[name = tensor<string, []>("op_238_perm_1"), val = tensor<int32, [3]>([1, 0, 2])];
            tensor<int32, [2]> var_242 = const()[name = tensor<string, []>("op_242"), val = tensor<int32, [2]>([16384, 32])];
            tensor<fp16, [16384, 1, 32]> transpose_121 = transpose(perm = var_238_perm_1, x = attn_output_1_cast_fp16)[name = tensor<string, []>("transpose_121")];
            tensor<fp16, [16384, 32]> attn_output_3_cast_fp16 = reshape(shape = var_242, x = transpose_121)[name = tensor<string, []>("attn_output_3_cast_fp16")];
            tensor<fp16, [32, 32]> model_backbone_layers_0_1_0_attn_attn_out_proj_weight_to_fp16 = const()[name = tensor<string, []>("model_backbone_layers_0_1_0_attn_attn_out_proj_weight_to_fp16"), val = tensor<fp16, [32, 32]>(BLOBFILE(path = tensor<string, []>("@model_path/weights/weight.bin"), offset = tensor<uint64, []>(148288)))];
            tensor<fp16, [32]> model_backbone_layers_0_1_0_attn_attn_out_proj_bias_to_fp16 = const()[name = tensor<string, []>("model_backbone_layers_0_1_0_attn_attn_out_proj_bias_to_fp16"), val = tensor<fp16, [32]>(BLOBFILE(path = tensor<string, []>("@model_path/weights/weight.bin"), offset = tensor<uint64, []>(150400)))];
            tensor<fp16, [16384, 32]> linear_26_cast_fp16 = linear(bias = model_backbone_layers_0_1_0_attn_attn_out_proj_bias_to_fp16, weight = model_backbone_layers_0_1_0_attn_attn_out_proj_weight_to_fp16, x = attn_output_3_cast_fp16)[name = tensor<string, []>("linear_26_cast_fp16")];
            tensor<int32, [3]> var_246 = const()[name = tensor<string, []>("op_246"), val = tensor<int32, [3]>([16384, 1, 32])];
            tensor<fp16, [16384, 1, 32]> out_1_cast_fp16 = reshape(shape = var_246, x = linear_26_cast_fp16)[name = tensor<string, []>("out_1_cast_fp16")];
            tensor<int32, [3]> input_9_perm_1 = const()[name = tensor<string, []>("input_9_perm_1"), val = tensor<int32, [3]>([1, 0, 2])];
            tensor<fp16, [1, 16384, 32]> transpose_120 = transpose(perm = input_9_perm_1, x = out_1_cast_fp16)[name = tensor<string, []>("transpose_120")];
            tensor<fp16, [1, 16384, 32]> input_11_cast_fp16 = add(x = input_3_cast_fp16, y = transpose_120)[name = tensor<string, []>("input_11_cast_fp16")];
            tensor<int32, [1]> x_9_axes_1 = const()[name = tensor<string, []>("x_9_axes_1"), val = tensor<int32, [1]>([-1])];
            tensor<fp16, [32]> model_backbone_layers_0_1_0_norm2_weight_to_fp16 = const()[name = tensor<string, []>("model_backbone_layers_0_1_0_norm2_weight_to_fp16"), val = tensor<fp16, [32]>(BLOBFILE(path = tensor<string, []>("@model_path/weights/weight.bin"), offset = tensor<uint64, []>(150528)))];
            tensor<fp16, [32]> model_backbone_layers_0_1_0_norm2_bias_to_fp16 = const()[name = tensor<string, []>("model_backbone_layers_0_1_0_norm2_bias_to_fp16"), val = tensor<fp16, [32]>(BLOBFILE(path = tensor<string, []>("@model_path/weights/weight.bin"), offset = tensor<uint64, []>(150656)))];
            tensor<fp16, [1, 16384, 32]> x_9_cast_fp16 = layer_norm(axes = x_9_axes_1, beta = model_backbone_layers_0_1_0_norm2_bias_to_fp16, epsilon = var_50_to_fp16, gamma = model_backbone_layers_0_1_0_norm2_weight_to_fp16, x = input_11_cast_fp16)[name = tensor<string, []>("x_9_cast_fp16")];
            tensor<int32, [3]> var_258_perm_1 = const()[name = tensor<string, []>("op_258_perm_1"), val = tensor<int32, [3]>([0, 2, 1])];
            tensor<int32, [4]> var_259 = const()[name = tensor<string, []>("op_259"), val = tensor<int32, [4]>([1, 32, 128, 128])];
            tensor<fp16, [1, 32, 16384]> transpose_119 = transpose(perm = var_258_perm_1, x = x_9_cast_fp16)[name = tensor<string, []>("transpose_119")];
            tensor<fp16, [1, 32, 128, 128]> x_11_cast_fp16 = reshape(shape = var_259, x = transpose_119)[name = tensor<string, []>("x_11_cast_fp16")];
            tensor<int32, [2]> var_266 = const()[name = tensor<string, []>("op_266"), val = tensor<int32, [2]>([1, 1])];
            tensor<int32, [2]> var_268 = const()[name = tensor<string, []>("op_268"), val = tensor<int32, [2]>([1, 1])];
            tensor<string, []> x_13_pad_type_1 = const()[name = tensor<string, []>("x_13_pad_type_1"), val = tensor<string, []>("custom")];
            tensor<int32, [4]> x_13_pad_1 = const()[name = tensor<string, []>("x_13_pad_1"), val = tensor<int32, [4]>([0, 0, 0, 0])];
            tensor<fp16, [128, 32, 1, 1]> model_backbone_layers_0_1_0_ffn_layers_0_weight_to_fp16 = const()[name = tensor<string, []>("model_backbone_layers_0_1_0_ffn_layers_0_weight_to_fp16"), val = tensor<fp16, [128, 32, 1, 1]>(BLOBFILE(path = tensor<string, []>("@model_path/weights/weight.bin"), offset = tensor<uint64, []>(150784)))];
            tensor<fp16, [128]> model_backbone_layers_0_1_0_ffn_layers_0_bias_to_fp16 = const()[name = tensor<string, []>("model_backbone_layers_0_1_0_ffn_layers_0_bias_to_fp16"), val = tensor<fp16, [128]>(BLOBFILE(path = tensor<string, []>("@model_path/weights/weight.bin"), offset = tensor<uint64, []>(159040)))];
            tensor<fp16, [1, 128, 128, 128]> x_13_cast_fp16 = conv(bias = model_backbone_layers_0_1_0_ffn_layers_0_bias_to_fp16, dilations = var_268, groups = var_45, pad = x_13_pad_1, pad_type = x_13_pad_type_1, strides = var_266, weight = model_backbone_layers_0_1_0_ffn_layers_0_weight_to_fp16, x = x_11_cast_fp16)[name = tensor<string, []>("x_13_cast_fp16")];
            tensor<int32, [2]> var_273 = const()[name = tensor<string, []>("op_273"), val = tensor<int32, [2]>([1, 1])];
            tensor<int32, [2]> var_275 = const()[name = tensor<string, []>("op_275"), val = tensor<int32, [2]>([1, 1])];
            tensor<string, []> input_13_pad_type_1 = const()[name = tensor<string, []>("input_13_pad_type_1"), val = tensor<string, []>("custom")];
            tensor<int32, [4]> input_13_pad_1 = const()[name = tensor<string, []>("input_13_pad_1"), val = tensor<int32, [4]>([1, 1, 1, 1])];
            tensor<fp16, [128, 1, 3, 3]> model_backbone_layers_0_1_0_ffn_layers_1_weight_to_fp16 = const()[name = tensor<string, []>("model_backbone_layers_0_1_0_ffn_layers_1_weight_to_fp16"), val = tensor<fp16, [128, 1, 3, 3]>(BLOBFILE(path = tensor<string, []>("@model_path/weights/weight.bin"), offset = tensor<uint64, []>(159360)))];
            tensor<fp16, [128]> model_backbone_layers_0_1_0_ffn_layers_1_bias_to_fp16 = const()[name = tensor<string, []>("model_backbone_layers_0_1_0_ffn_layers_1_bias_to_fp16"), val = tensor<fp16, [128]>(BLOBFILE(path = tensor<string, []>("@model_path/weights/weight.bin"), offset = tensor<uint64, []>(161728)))];
            tensor<fp16, [1, 128, 128, 128]> input_13_cast_fp16 = conv(bias = model_backbone_layers_0_1_0_ffn_layers_1_bias_to_fp16, dilations = var_275, groups = var_40, pad = input_13_pad_1, pad_type = input_13_pad_type_1, strides = var_273, weight = model_backbone_layers_0_1_0_ffn_layers_1_weight_to_fp16, x = x_13_cast_fp16)[name = tensor<string, []>("input_13_cast_fp16")];
            tensor<string, []> input_15_mode_1 = const()[name = tensor<string, []>("input_15_mode_1"), val = tensor<string, []>("EXACT")];
            tensor<fp16, [1, 128, 128, 128]> input_15_cast_fp16 = gelu(mode = input_15_mode_1, x = input_13_cast_fp16)[name = tensor<string, []>("input_15_cast_fp16")];
            tensor<int32, [2]> var_282 = const()[name = tensor<string, []>("op_282"), val = tensor<int32, [2]>([1, 1])];
            tensor<int32, [2]> var_284 = const()[name = tensor<string, []>("op_284"), val = tensor<int32, [2]>([1, 1])];
            tensor<string, []> input_17_pad_type_1 = const()[name = tensor<string, []>("input_17_pad_type_1"), val = tensor<string, []>("custom")];
            tensor<int32, [4]> input_17_pad_1 = const()[name = tensor<string, []>("input_17_pad_1"), val = tensor<int32, [4]>([0, 0, 0, 0])];
            tensor<fp16, [32, 128, 1, 1]> model_backbone_layers_0_1_0_ffn_layers_4_weight_to_fp16 = const()[name = tensor<string, []>("model_backbone_layers_0_1_0_ffn_layers_4_weight_to_fp16"), val = tensor<fp16, [32, 128, 1, 1]>(BLOBFILE(path = tensor<string, []>("@model_path/weights/weight.bin"), offset = tensor<uint64, []>(162048)))];
            tensor<fp16, [32]> model_backbone_layers_0_1_0_ffn_layers_4_bias_to_fp16 = const()[name = tensor<string, []>("model_backbone_layers_0_1_0_ffn_layers_4_bias_to_fp16"), val = tensor<fp16, [32]>(BLOBFILE(path = tensor<string, []>("@model_path/weights/weight.bin"), offset = tensor<uint64, []>(170304)))];
            tensor<fp16, [1, 32, 128, 128]> input_17_cast_fp16 = conv(bias = model_backbone_layers_0_1_0_ffn_layers_4_bias_to_fp16, dilations = var_284, groups = var_45, pad = input_17_pad_1, pad_type = input_17_pad_type_1, strides = var_282, weight = model_backbone_layers_0_1_0_ffn_layers_4_weight_to_fp16, x = input_15_cast_fp16)[name = tensor<string, []>("input_17_cast_fp16")];
            tensor<int32, [3]> concat_20 = const()[name = tensor<string, []>("concat_20"), val = tensor<int32, [3]>([1, 32, 16384])];
            tensor<fp16, [1, 32, 16384]> var_288_cast_fp16 = reshape(shape = concat_20, x = input_17_cast_fp16)[name = tensor<string, []>("op_288_cast_fp16")];
            tensor<int32, [3]> var_289_perm_1 = const()[name = tensor<string, []>("op_289_perm_1"), val = tensor<int32, [3]>([0, 2, 1])];
            tensor<fp16, [1, 16384, 32]> transpose_118 = transpose(perm = var_289_perm_1, x = var_288_cast_fp16)[name = tensor<string, []>("transpose_118")];
            tensor<fp16, [1, 16384, 32]> input_19_cast_fp16 = add(x = input_11_cast_fp16, y = transpose_118)[name = tensor<string, []>("input_19_cast_fp16")];
            tensor<int32, [1]> x_19_axes_1 = const()[name = tensor<string, []>("x_19_axes_1"), val = tensor<int32, [1]>([-1])];
            tensor<fp16, [32]> model_backbone_layers_0_1_1_norm1_weight_to_fp16 = const()[name = tensor<string, []>("model_backbone_layers_0_1_1_norm1_weight_to_fp16"), val = tensor<fp16, [32]>(BLOBFILE(path = tensor<string, []>("@model_path/weights/weight.bin"), offset = tensor<uint64, []>(170432)))];
            tensor<fp16, [32]> model_backbone_layers_0_1_1_norm1_bias_to_fp16 = const()[name = tensor<string, []>("model_backbone_layers_0_1_1_norm1_bias_to_fp16"), val = tensor<fp16, [32]>(BLOBFILE(path = tensor<string, []>("@model_path/weights/weight.bin"), offset = tensor<uint64, []>(170560)))];
            tensor<fp16, [1, 16384, 32]> x_19_cast_fp16 = layer_norm(axes = x_19_axes_1, beta = model_backbone_layers_0_1_1_norm1_bias_to_fp16, epsilon = var_50_to_fp16, gamma = model_backbone_layers_0_1_1_norm1_weight_to_fp16, x = input_19_cast_fp16)[name = tensor<string, []>("x_19_cast_fp16")];
            tensor<int32, [3]> var_305_perm_1 = const()[name = tensor<string, []>("op_305_perm_1"), val = tensor<int32, [3]>([0, 2, 1])];
            tensor<int32, [4]> var_306 = const()[name = tensor<string, []>("op_306"), val = tensor<int32, [4]>([1, 32, 128, 128])];
            tensor<fp16, [1, 32, 16384]> transpose_117 = transpose(perm = var_305_perm_1, x = x_19_cast_fp16)[name = tensor<string, []>("transpose_117")];
            tensor<fp16, [1, 32, 128, 128]> x_21_cast_fp16 = reshape(shape = var_306, x = transpose_117)[name = tensor<string, []>("x_21_cast_fp16")];
            tensor<int32, [2]> var_310 = const()[name = tensor<string, []>("op_310"), val = tensor<int32, [2]>([8, 8])];
            tensor<int32, [2]> var_312 = const()[name = tensor<string, []>("op_312"), val = tensor<int32, [2]>([1, 1])];
            tensor<string, []> x_23_pad_type_1 = const()[name = tensor<string, []>("x_23_pad_type_1"), val = tensor<string, []>("custom")];
            tensor<int32, [4]> x_23_pad_1 = const()[name = tensor<string, []>("x_23_pad_1"), val = tensor<int32, [4]>([0, 0, 0, 0])];
            tensor<fp16, [32, 32, 8, 8]> model_backbone_layers_0_1_1_attn_sr_weight_to_fp16 = const()[name = tensor<string, []>("model_backbone_layers_0_1_1_attn_sr_weight_to_fp16"), val = tensor<fp16, [32, 32, 8, 8]>(BLOBFILE(path = tensor<string, []>("@model_path/weights/weight.bin"), offset = tensor<uint64, []>(170688)))];
            tensor<fp16, [32]> model_backbone_layers_0_1_1_attn_sr_bias_to_fp16 = const()[name = tensor<string, []>("model_backbone_layers_0_1_1_attn_sr_bias_to_fp16"), val = tensor<fp16, [32]>(BLOBFILE(path = tensor<string, []>("@model_path/weights/weight.bin"), offset = tensor<uint64, []>(301824)))];
            tensor<fp16, [1, 32, 16, 16]> x_23_cast_fp16 = conv(bias = model_backbone_layers_0_1_1_attn_sr_bias_to_fp16, dilations = var_312, groups = var_45, pad = x_23_pad_1, pad_type = x_23_pad_type_1, strides = var_310, weight = model_backbone_layers_0_1_1_attn_sr_weight_to_fp16, x = x_21_cast_fp16)[name = tensor<string, []>("x_23_cast_fp16")];
            tensor<int32, [3]> concat_21 = const()[name = tensor<string, []>("concat_21"), val = tensor<int32, [3]>([1, 32, 256])];
            tensor<fp16, [1, 32, 256]> var_315_cast_fp16 = reshape(shape = concat_21, x = x_23_cast_fp16)[name = tensor<string, []>("op_315_cast_fp16")];
            tensor<int32, [3]> var_316_perm_1 = const()[name = tensor<string, []>("op_316_perm_1"), val = tensor<int32, [3]>([0, 2, 1])];
            tensor<int32, [1]> x_kv_3_axes_1 = const()[name = tensor<string, []>("x_kv_3_axes_1"), val = tensor<int32, [1]>([-1])];
            tensor<fp16, [32]> model_backbone_layers_0_1_1_attn_norm_weight_to_fp16 = const()[name = tensor<string, []>("model_backbone_layers_0_1_1_attn_norm_weight_to_fp16"), val = tensor<fp16, [32]>(BLOBFILE(path = tensor<string, []>("@model_path/weights/weight.bin"), offset = tensor<uint64, []>(301952)))];
            tensor<fp16, [32]> model_backbone_layers_0_1_1_attn_norm_bias_to_fp16 = const()[name = tensor<string, []>("model_backbone_layers_0_1_1_attn_norm_bias_to_fp16"), val = tensor<fp16, [32]>(BLOBFILE(path = tensor<string, []>("@model_path/weights/weight.bin"), offset = tensor<uint64, []>(302080)))];
            tensor<fp16, [1, 256, 32]> transpose_116 = transpose(perm = var_316_perm_1, x = var_315_cast_fp16)[name = tensor<string, []>("transpose_116")];
            tensor<fp16, [1, 256, 32]> x_kv_3_cast_fp16 = layer_norm(axes = x_kv_3_axes_1, beta = model_backbone_layers_0_1_1_attn_norm_bias_to_fp16, epsilon = var_50_to_fp16, gamma = model_backbone_layers_0_1_1_attn_norm_weight_to_fp16, x = transpose_116)[name = tensor<string, []>("x_kv_3_cast_fp16")];
            tensor<int32, [3]> query_3_perm_1 = const()[name = tensor<string, []>("query_3_perm_1"), val = tensor<int32, [3]>([1, 0, 2])];
            tensor<int32, [3]> key_3_perm_1 = const()[name = tensor<string, []>("key_3_perm_1"), val = tensor<int32, [3]>([1, 0, 2])];
            tensor<fp16, [32, 32]> var_346_0_to_fp16 = const()[name = tensor<string, []>("op_346_0_to_fp16"), val = tensor<fp16, [32, 32]>(BLOBFILE(path = tensor<string, []>("@model_path/weights/weight.bin"), offset = tensor<uint64, []>(302208)))];
            tensor<fp16, [32]> var_353_0_to_fp16 = const()[name = tensor<string, []>("op_353_0_to_fp16"), val = tensor<fp16, [32]>(BLOBFILE(path = tensor<string, []>("@model_path/weights/weight.bin"), offset = tensor<uint64, []>(304320)))];
            tensor<fp16, [16384, 1, 32]> transpose_115 = transpose(perm = query_3_perm_1, x = x_19_cast_fp16)[name = tensor<string, []>("transpose_115")];
            tensor<fp16, [16384, 1, 32]> linear_27_cast_fp16 = linear(bias = var_353_0_to_fp16, weight = var_346_0_to_fp16, x = transpose_115)[name = tensor<string, []>("linear_27_cast_fp16")];
            tensor<fp16, [64, 32]> var_346_1_to_fp16 = const()[name = tensor<string, []>("op_346_1_to_fp16"), val = tensor<fp16, [64, 32]>(BLOBFILE(path = tensor<string, []>("@model_path/weights/weight.bin"), offset = tensor<uint64, []>(304448)))];
            tensor<fp16, [64]> var_353_1_to_fp16 = const()[name = tensor<string, []>("op_353_1_to_fp16"), val = tensor<fp16, [64]>(BLOBFILE(path = tensor<string, []>("@model_path/weights/weight.bin"), offset = tensor<uint64, []>(308608)))];
            tensor<fp16, [256, 1, 32]> transpose_114 = transpose(perm = key_3_perm_1, x = x_kv_3_cast_fp16)[name = tensor<string, []>("transpose_114")];
            tensor<fp16, [256, 1, 64]> linear_28_cast_fp16 = linear(bias = var_353_1_to_fp16, weight = var_346_1_to_fp16, x = transpose_114)[name = tensor<string, []>("linear_28_cast_fp16")];
            tensor<int32, [2]> var_358_split_sizes_1 = const()[name = tensor<string, []>("op_358_split_sizes_1"), val = tensor<int32, [2]>([32, 32])];
            tensor<int32, []> var_358_axis_1 = const()[name = tensor<string, []>("op_358_axis_1"), val = tensor<int32, []>(-1)];
            tensor<fp16, [256, 1, 32]> var_358_cast_fp16_0, tensor<fp16, [256, 1, 32]> var_358_cast_fp16_1 = split(axis = var_358_axis_1, split_sizes = var_358_split_sizes_1, x = linear_28_cast_fp16)[name = tensor<string, []>("op_358_cast_fp16")];
            tensor<int32, [3]> v_7_perm_1 = const()[name = tensor<string, []>("v_7_perm_1"), val = tensor<int32, [3]>([1, 0, 2])];
            tensor<fp16, []> _inversed_q_scaled_3_y_0_to_fp16 = const()[name = tensor<string, []>("_inversed_q_scaled_3_y_0_to_fp16"), val = tensor<fp16, []>(0x1.6ap-3)];
            tensor<fp16, [16384, 1, 32]> _inversed_q_scaled_3_cast_fp16 = mul(x = linear_27_cast_fp16, y = _inversed_q_scaled_3_y_0_to_fp16)[name = tensor<string, []>("_inversed_q_scaled_3_cast_fp16")];
            tensor<bool, []> input_23_transpose_x_1 = const()[name = tensor<string, []>("input_23_transpose_x_1"), val = tensor<bool, []>(false)];
            tensor<bool, []> input_23_transpose_y_1 = const()[name = tensor<string, []>("input_23_transpose_y_1"), val = tensor<bool, []>(false)];
            tensor<int32, [3]> transpose_26_perm_0 = const()[name = tensor<string, []>("transpose_26_perm_0"), val = tensor<int32, [3]>([1, 0, 2])];
            tensor<int32, [3]> transpose_27_perm_0 = const()[name = tensor<string, []>("transpose_27_perm_0"), val = tensor<int32, [3]>([1, 2, 0])];
            tensor<fp16, [1, 32, 256]> transpose_111 = transpose(perm = transpose_27_perm_0, x = var_358_cast_fp16_0)[name = tensor<string, []>("transpose_111")];
            tensor<fp16, [1, 16384, 32]> transpose_112 = transpose(perm = transpose_26_perm_0, x = _inversed_q_scaled_3_cast_fp16)[name = tensor<string, []>("transpose_112")];
            tensor<fp16, [1, 16384, 256]> input_23_cast_fp16 = matmul(transpose_x = input_23_transpose_x_1, transpose_y = input_23_transpose_y_1, x = transpose_112, y = transpose_111)[name = tensor<string, []>("input_23_cast_fp16")];
            tensor<fp16, [1, 16384, 256]> attn_output_weights_5_cast_fp16 = softmax(axis = var_49, x = input_23_cast_fp16)[name = tensor<string, []>("attn_output_weights_5_cast_fp16")];
            tensor<bool, []> attn_output_7_transpose_x_1 = const()[name = tensor<string, []>("attn_output_7_transpose_x_1"), val = tensor<bool, []>(false)];
            tensor<bool, []> attn_output_7_transpose_y_1 = const()[name = tensor<string, []>("attn_output_7_transpose_y_1"), val = tensor<bool, []>(false)];
            tensor<fp16, [1, 256, 32]> transpose_113 = transpose(perm = v_7_perm_1, x = var_358_cast_fp16_1)[name = tensor<string, []>("transpose_113")];
            tensor<fp16, [1, 16384, 32]> attn_output_7_cast_fp16 = matmul(transpose_x = attn_output_7_transpose_x_1, transpose_y = attn_output_7_transpose_y_1, x = attn_output_weights_5_cast_fp16, y = transpose_113)[name = tensor<string, []>("attn_output_7_cast_fp16")];
            tensor<int32, [3]> var_389_perm_1 = const()[name = tensor<string, []>("op_389_perm_1"), val = tensor<int32, [3]>([1, 0, 2])];
            tensor<int32, [2]> var_393 = const()[name = tensor<string, []>("op_393"), val = tensor<int32, [2]>([16384, 32])];
            tensor<fp16, [16384, 1, 32]> transpose_110 = transpose(perm = var_389_perm_1, x = attn_output_7_cast_fp16)[name = tensor<string, []>("transpose_110")];
            tensor<fp16, [16384, 32]> attn_output_9_cast_fp16 = reshape(shape = var_393, x = transpose_110)[name = tensor<string, []>("attn_output_9_cast_fp16")];
            tensor<fp16, [32, 32]> model_backbone_layers_0_1_1_attn_attn_out_proj_weight_to_fp16 = const()[name = tensor<string, []>("model_backbone_layers_0_1_1_attn_attn_out_proj_weight_to_fp16"), val = tensor<fp16, [32, 32]>(BLOBFILE(path = tensor<string, []>("@model_path/weights/weight.bin"), offset = tensor<uint64, []>(308800)))];
            tensor<fp16, [32]> model_backbone_layers_0_1_1_attn_attn_out_proj_bias_to_fp16 = const()[name = tensor<string, []>("model_backbone_layers_0_1_1_attn_attn_out_proj_bias_to_fp16"), val = tensor<fp16, [32]>(BLOBFILE(path = tensor<string, []>("@model_path/weights/weight.bin"), offset = tensor<uint64, []>(310912)))];
            tensor<fp16, [16384, 32]> linear_29_cast_fp16 = linear(bias = model_backbone_layers_0_1_1_attn_attn_out_proj_bias_to_fp16, weight = model_backbone_layers_0_1_1_attn_attn_out_proj_weight_to_fp16, x = attn_output_9_cast_fp16)[name = tensor<string, []>("linear_29_cast_fp16")];
            tensor<int32, [3]> var_397 = const()[name = tensor<string, []>("op_397"), val = tensor<int32, [3]>([16384, 1, 32])];
            tensor<fp16, [16384, 1, 32]> out_7_cast_fp16 = reshape(shape = var_397, x = linear_29_cast_fp16)[name = tensor<string, []>("out_7_cast_fp16")];
            tensor<int32, [3]> input_25_perm_1 = const()[name = tensor<string, []>("input_25_perm_1"), val = tensor<int32, [3]>([1, 0, 2])];
            tensor<fp16, [1, 16384, 32]> transpose_109 = transpose(perm = input_25_perm_1, x = out_7_cast_fp16)[name = tensor<string, []>("transpose_109")];
            tensor<fp16, [1, 16384, 32]> input_27_cast_fp16 = add(x = input_19_cast_fp16, y = transpose_109)[name = tensor<string, []>("input_27_cast_fp16")];
            tensor<int32, [1]> x_25_axes_1 = const()[name = tensor<string, []>("x_25_axes_1"), val = tensor<int32, [1]>([-1])];
            tensor<fp16, [32]> model_backbone_layers_0_1_1_norm2_weight_to_fp16 = const()[name = tensor<string, []>("model_backbone_layers_0_1_1_norm2_weight_to_fp16"), val = tensor<fp16, [32]>(BLOBFILE(path = tensor<string, []>("@model_path/weights/weight.bin"), offset = tensor<uint64, []>(311040)))];
            tensor<fp16, [32]> model_backbone_layers_0_1_1_norm2_bias_to_fp16 = const()[name = tensor<string, []>("model_backbone_layers_0_1_1_norm2_bias_to_fp16"), val = tensor<fp16, [32]>(BLOBFILE(path = tensor<string, []>("@model_path/weights/weight.bin"), offset = tensor<uint64, []>(311168)))];
            tensor<fp16, [1, 16384, 32]> x_25_cast_fp16 = layer_norm(axes = x_25_axes_1, beta = model_backbone_layers_0_1_1_norm2_bias_to_fp16, epsilon = var_50_to_fp16, gamma = model_backbone_layers_0_1_1_norm2_weight_to_fp16, x = input_27_cast_fp16)[name = tensor<string, []>("x_25_cast_fp16")];
            tensor<int32, [3]> var_409_perm_1 = const()[name = tensor<string, []>("op_409_perm_1"), val = tensor<int32, [3]>([0, 2, 1])];
            tensor<int32, [4]> var_410 = const()[name = tensor<string, []>("op_410"), val = tensor<int32, [4]>([1, 32, 128, 128])];
            tensor<fp16, [1, 32, 16384]> transpose_108 = transpose(perm = var_409_perm_1, x = x_25_cast_fp16)[name = tensor<string, []>("transpose_108")];
            tensor<fp16, [1, 32, 128, 128]> x_27_cast_fp16 = reshape(shape = var_410, x = transpose_108)[name = tensor<string, []>("x_27_cast_fp16")];
            tensor<int32, [2]> var_417 = const()[name = tensor<string, []>("op_417"), val = tensor<int32, [2]>([1, 1])];
            tensor<int32, [2]> var_419 = const()[name = tensor<string, []>("op_419"), val = tensor<int32, [2]>([1, 1])];
            tensor<string, []> x_29_pad_type_1 = const()[name = tensor<string, []>("x_29_pad_type_1"), val = tensor<string, []>("custom")];
            tensor<int32, [4]> x_29_pad_1 = const()[name = tensor<string, []>("x_29_pad_1"), val = tensor<int32, [4]>([0, 0, 0, 0])];
            tensor<fp16, [128, 32, 1, 1]> model_backbone_layers_0_1_1_ffn_layers_0_weight_to_fp16 = const()[name = tensor<string, []>("model_backbone_layers_0_1_1_ffn_layers_0_weight_to_fp16"), val = tensor<fp16, [128, 32, 1, 1]>(BLOBFILE(path = tensor<string, []>("@model_path/weights/weight.bin"), offset = tensor<uint64, []>(311296)))];
            tensor<fp16, [128]> model_backbone_layers_0_1_1_ffn_layers_0_bias_to_fp16 = const()[name = tensor<string, []>("model_backbone_layers_0_1_1_ffn_layers_0_bias_to_fp16"), val = tensor<fp16, [128]>(BLOBFILE(path = tensor<string, []>("@model_path/weights/weight.bin"), offset = tensor<uint64, []>(319552)))];
            tensor<fp16, [1, 128, 128, 128]> x_29_cast_fp16 = conv(bias = model_backbone_layers_0_1_1_ffn_layers_0_bias_to_fp16, dilations = var_419, groups = var_45, pad = x_29_pad_1, pad_type = x_29_pad_type_1, strides = var_417, weight = model_backbone_layers_0_1_1_ffn_layers_0_weight_to_fp16, x = x_27_cast_fp16)[name = tensor<string, []>("x_29_cast_fp16")];
            tensor<int32, [2]> var_424 = const()[name = tensor<string, []>("op_424"), val = tensor<int32, [2]>([1, 1])];
            tensor<int32, [2]> var_426 = const()[name = tensor<string, []>("op_426"), val = tensor<int32, [2]>([1, 1])];
            tensor<string, []> input_29_pad_type_1 = const()[name = tensor<string, []>("input_29_pad_type_1"), val = tensor<string, []>("custom")];
            tensor<int32, [4]> input_29_pad_1 = const()[name = tensor<string, []>("input_29_pad_1"), val = tensor<int32, [4]>([1, 1, 1, 1])];
            tensor<fp16, [128, 1, 3, 3]> model_backbone_layers_0_1_1_ffn_layers_1_weight_to_fp16 = const()[name = tensor<string, []>("model_backbone_layers_0_1_1_ffn_layers_1_weight_to_fp16"), val = tensor<fp16, [128, 1, 3, 3]>(BLOBFILE(path = tensor<string, []>("@model_path/weights/weight.bin"), offset = tensor<uint64, []>(319872)))];
            tensor<fp16, [128]> model_backbone_layers_0_1_1_ffn_layers_1_bias_to_fp16 = const()[name = tensor<string, []>("model_backbone_layers_0_1_1_ffn_layers_1_bias_to_fp16"), val = tensor<fp16, [128]>(BLOBFILE(path = tensor<string, []>("@model_path/weights/weight.bin"), offset = tensor<uint64, []>(322240)))];
            tensor<fp16, [1, 128, 128, 128]> input_29_cast_fp16 = conv(bias = model_backbone_layers_0_1_1_ffn_layers_1_bias_to_fp16, dilations = var_426, groups = var_40, pad = input_29_pad_1, pad_type = input_29_pad_type_1, strides = var_424, weight = model_backbone_layers_0_1_1_ffn_layers_1_weight_to_fp16, x = x_29_cast_fp16)[name = tensor<string, []>("input_29_cast_fp16")];
            tensor<string, []> input_31_mode_1 = const()[name = tensor<string, []>("input_31_mode_1"), val = tensor<string, []>("EXACT")];
            tensor<fp16, [1, 128, 128, 128]> input_31_cast_fp16 = gelu(mode = input_31_mode_1, x = input_29_cast_fp16)[name = tensor<string, []>("input_31_cast_fp16")];
            tensor<int32, [2]> var_433 = const()[name = tensor<string, []>("op_433"), val = tensor<int32, [2]>([1, 1])];
            tensor<int32, [2]> var_435 = const()[name = tensor<string, []>("op_435"), val = tensor<int32, [2]>([1, 1])];
            tensor<string, []> input_33_pad_type_1 = const()[name = tensor<string, []>("input_33_pad_type_1"), val = tensor<string, []>("custom")];
            tensor<int32, [4]> input_33_pad_1 = const()[name = tensor<string, []>("input_33_pad_1"), val = tensor<int32, [4]>([0, 0, 0, 0])];
            tensor<fp16, [32, 128, 1, 1]> model_backbone_layers_0_1_1_ffn_layers_4_weight_to_fp16 = const()[name = tensor<string, []>("model_backbone_layers_0_1_1_ffn_layers_4_weight_to_fp16"), val = tensor<fp16, [32, 128, 1, 1]>(BLOBFILE(path = tensor<string, []>("@model_path/weights/weight.bin"), offset = tensor<uint64, []>(322560)))];
            tensor<fp16, [32]> model_backbone_layers_0_1_1_ffn_layers_4_bias_to_fp16 = const()[name = tensor<string, []>("model_backbone_layers_0_1_1_ffn_layers_4_bias_to_fp16"), val = tensor<fp16, [32]>(BLOBFILE(path = tensor<string, []>("@model_path/weights/weight.bin"), offset = tensor<uint64, []>(330816)))];
            tensor<fp16, [1, 32, 128, 128]> input_33_cast_fp16 = conv(bias = model_backbone_layers_0_1_1_ffn_layers_4_bias_to_fp16, dilations = var_435, groups = var_45, pad = input_33_pad_1, pad_type = input_33_pad_type_1, strides = var_433, weight = model_backbone_layers_0_1_1_ffn_layers_4_weight_to_fp16, x = input_31_cast_fp16)[name = tensor<string, []>("input_33_cast_fp16")];
            tensor<int32, [3]> concat_22 = const()[name = tensor<string, []>("concat_22"), val = tensor<int32, [3]>([1, 32, 16384])];
            tensor<fp16, [1, 32, 16384]> var_439_cast_fp16 = reshape(shape = concat_22, x = input_33_cast_fp16)[name = tensor<string, []>("op_439_cast_fp16")];
            tensor<int32, [3]> var_440_perm_1 = const()[name = tensor<string, []>("op_440_perm_1"), val = tensor<int32, [3]>([0, 2, 1])];
            tensor<fp16, [1, 16384, 32]> transpose_107 = transpose(perm = var_440_perm_1, x = var_439_cast_fp16)[name = tensor<string, []>("transpose_107")];
            tensor<fp16, [1, 16384, 32]> input_35_cast_fp16 = add(x = input_27_cast_fp16, y = transpose_107)[name = tensor<string, []>("input_35_cast_fp16")];
            tensor<int32, [1]> x_35_axes_1 = const()[name = tensor<string, []>("x_35_axes_1"), val = tensor<int32, [1]>([-1])];
            tensor<fp16, [32]> model_backbone_layers_0_2_weight_to_fp16 = const()[name = tensor<string, []>("model_backbone_layers_0_2_weight_to_fp16"), val = tensor<fp16, [32]>(BLOBFILE(path = tensor<string, []>("@model_path/weights/weight.bin"), offset = tensor<uint64, []>(330944)))];
            tensor<fp16, [32]> model_backbone_layers_0_2_bias_to_fp16 = const()[name = tensor<string, []>("model_backbone_layers_0_2_bias_to_fp16"), val = tensor<fp16, [32]>(BLOBFILE(path = tensor<string, []>("@model_path/weights/weight.bin"), offset = tensor<uint64, []>(331072)))];
            tensor<fp16, [1, 16384, 32]> x_35_cast_fp16 = layer_norm(axes = x_35_axes_1, beta = model_backbone_layers_0_2_bias_to_fp16, epsilon = var_50_to_fp16, gamma = model_backbone_layers_0_2_weight_to_fp16, x = input_35_cast_fp16)[name = tensor<string, []>("x_35_cast_fp16")];
            tensor<int32, [3]> var_449_perm_1 = const()[name = tensor<string, []>("op_449_perm_1"), val = tensor<int32, [3]>([0, 2, 1])];
            tensor<int32, [4]> var_450 = const()[name = tensor<string, []>("op_450"), val = tensor<int32, [4]>([1, 32, 128, 128])];
            tensor<fp16, [1, 32, 16384]> transpose_106 = transpose(perm = var_449_perm_1, x = x_35_cast_fp16)[name = tensor<string, []>("transpose_106")];
            tensor<fp16, [1, 32, 128, 128]> input_37_cast_fp16 = reshape(shape = var_450, x = transpose_106)[name = tensor<string, []>("input_37_cast_fp16")];
            tensor<int32, [2]> var_456 = const()[name = tensor<string, []>("op_456"), val = tensor<int32, [2]>([2, 2])];
            tensor<int32, [2]> var_458 = const()[name = tensor<string, []>("op_458"), val = tensor<int32, [2]>([1, 1])];
            tensor<string, []> x_37_pad_type_1 = const()[name = tensor<string, []>("x_37_pad_type_1"), val = tensor<string, []>("custom")];
            tensor<int32, [4]> x_37_pad_1 = const()[name = tensor<string, []>("x_37_pad_1"), val = tensor<int32, [4]>([1, 1, 1, 1])];
            tensor<fp16, [64, 32, 3, 3]> model_backbone_layers_1_0_projection_weight_to_fp16 = const()[name = tensor<string, []>("model_backbone_layers_1_0_projection_weight_to_fp16"), val = tensor<fp16, [64, 32, 3, 3]>(BLOBFILE(path = tensor<string, []>("@model_path/weights/weight.bin"), offset = tensor<uint64, []>(331200)))];
            tensor<fp16, [64]> model_backbone_layers_1_0_projection_bias_to_fp16 = const()[name = tensor<string, []>("model_backbone_layers_1_0_projection_bias_to_fp16"), val = tensor<fp16, [64]>(BLOBFILE(path = tensor<string, []>("@model_path/weights/weight.bin"), offset = tensor<uint64, []>(368128)))];
            tensor<fp16, [1, 64, 64, 64]> x_37_cast_fp16 = conv(bias = model_backbone_layers_1_0_projection_bias_to_fp16, dilations = var_458, groups = var_45, pad = x_37_pad_1, pad_type = x_37_pad_type_1, strides = var_456, weight = model_backbone_layers_1_0_projection_weight_to_fp16, x = input_37_cast_fp16)[name = tensor<string, []>("x_37_cast_fp16")];
            tensor<int32, [3]> concat_23 = const()[name = tensor<string, []>("concat_23"), val = tensor<int32, [3]>([1, 64, 4096])];
            tensor<fp16, [1, 64, 4096]> var_465_cast_fp16 = reshape(shape = concat_23, x = x_37_cast_fp16)[name = tensor<string, []>("op_465_cast_fp16")];
            tensor<int32, [3]> input_39_perm_1 = const()[name = tensor<string, []>("input_39_perm_1"), val = tensor<int32, [3]>([0, 2, 1])];
            tensor<int32, [1]> input_41_axes_1 = const()[name = tensor<string, []>("input_41_axes_1"), val = tensor<int32, [1]>([-1])];
            tensor<fp16, [64]> model_backbone_layers_1_0_norm_weight_to_fp16 = const()[name = tensor<string, []>("model_backbone_layers_1_0_norm_weight_to_fp16"), val = tensor<fp16, [64]>(BLOBFILE(path = tensor<string, []>("@model_path/weights/weight.bin"), offset = tensor<uint64, []>(368320)))];
            tensor<fp16, [64]> model_backbone_layers_1_0_norm_bias_to_fp16 = const()[name = tensor<string, []>("model_backbone_layers_1_0_norm_bias_to_fp16"), val = tensor<fp16, [64]>(BLOBFILE(path = tensor<string, []>("@model_path/weights/weight.bin"), offset = tensor<uint64, []>(368512)))];
            tensor<fp16, [1, 4096, 64]> transpose_105 = transpose(perm = input_39_perm_1, x = var_465_cast_fp16)[name = tensor<string, []>("transpose_105")];
            tensor<fp16, [1, 4096, 64]> input_41_cast_fp16 = layer_norm(axes = input_41_axes_1, beta = model_backbone_layers_1_0_norm_bias_to_fp16, epsilon = var_50_to_fp16, gamma = model_backbone_layers_1_0_norm_weight_to_fp16, x = transpose_105)[name = tensor<string, []>("input_41_cast_fp16")];
            tensor<int32, [1]> x_39_axes_1 = const()[name = tensor<string, []>("x_39_axes_1"), val = tensor<int32, [1]>([-1])];
            tensor<fp16, [64]> model_backbone_layers_1_1_0_norm1_weight_to_fp16 = const()[name = tensor<string, []>("model_backbone_layers_1_1_0_norm1_weight_to_fp16"), val = tensor<fp16, [64]>(BLOBFILE(path = tensor<string, []>("@model_path/weights/weight.bin"), offset = tensor<uint64, []>(368704)))];
            tensor<fp16, [64]> model_backbone_layers_1_1_0_norm1_bias_to_fp16 = const()[name = tensor<string, []>("model_backbone_layers_1_1_0_norm1_bias_to_fp16"), val = tensor<fp16, [64]>(BLOBFILE(path = tensor<string, []>("@model_path/weights/weight.bin"), offset = tensor<uint64, []>(368896)))];
            tensor<fp16, [1, 4096, 64]> x_39_cast_fp16 = layer_norm(axes = x_39_axes_1, beta = model_backbone_layers_1_1_0_norm1_bias_to_fp16, epsilon = var_50_to_fp16, gamma = model_backbone_layers_1_1_0_norm1_weight_to_fp16, x = input_41_cast_fp16)[name = tensor<string, []>("x_39_cast_fp16")];
            tensor<int32, [3]> var_498_perm_1 = const()[name = tensor<string, []>("op_498_perm_1"), val = tensor<int32, [3]>([0, 2, 1])];
            tensor<int32, [4]> var_499 = const()[name = tensor<string, []>("op_499"), val = tensor<int32, [4]>([1, 64, 64, 64])];
            tensor<fp16, [1, 64, 4096]> transpose_104 = transpose(perm = var_498_perm_1, x = x_39_cast_fp16)[name = tensor<string, []>("transpose_104")];
            tensor<fp16, [1, 64, 64, 64]> x_41_cast_fp16 = reshape(shape = var_499, x = transpose_104)[name = tensor<string, []>("x_41_cast_fp16")];
            tensor<int32, [2]> var_503 = const()[name = tensor<string, []>("op_503"), val = tensor<int32, [2]>([4, 4])];
            tensor<int32, [2]> var_505 = const()[name = tensor<string, []>("op_505"), val = tensor<int32, [2]>([1, 1])];
            tensor<string, []> x_43_pad_type_1 = const()[name = tensor<string, []>("x_43_pad_type_1"), val = tensor<string, []>("custom")];
            tensor<int32, [4]> x_43_pad_1 = const()[name = tensor<string, []>("x_43_pad_1"), val = tensor<int32, [4]>([0, 0, 0, 0])];
            tensor<fp16, [64, 64, 4, 4]> model_backbone_layers_1_1_0_attn_sr_weight_to_fp16 = const()[name = tensor<string, []>("model_backbone_layers_1_1_0_attn_sr_weight_to_fp16"), val = tensor<fp16, [64, 64, 4, 4]>(BLOBFILE(path = tensor<string, []>("@model_path/weights/weight.bin"), offset = tensor<uint64, []>(369088)))];
            tensor<fp16, [64]> model_backbone_layers_1_1_0_attn_sr_bias_to_fp16 = const()[name = tensor<string, []>("model_backbone_layers_1_1_0_attn_sr_bias_to_fp16"), val = tensor<fp16, [64]>(BLOBFILE(path = tensor<string, []>("@model_path/weights/weight.bin"), offset = tensor<uint64, []>(500224)))];
            tensor<fp16, [1, 64, 16, 16]> x_43_cast_fp16 = conv(bias = model_backbone_layers_1_1_0_attn_sr_bias_to_fp16, dilations = var_505, groups = var_45, pad = x_43_pad_1, pad_type = x_43_pad_type_1, strides = var_503, weight = model_backbone_layers_1_1_0_attn_sr_weight_to_fp16, x = x_41_cast_fp16)[name = tensor<string, []>("x_43_cast_fp16")];
            tensor<int32, [3]> concat_24 = const()[name = tensor<string, []>("concat_24"), val = tensor<int32, [3]>([1, 64, 256])];
            tensor<fp16, [1, 64, 256]> var_508_cast_fp16 = reshape(shape = concat_24, x = x_43_cast_fp16)[name = tensor<string, []>("op_508_cast_fp16")];
            tensor<int32, [3]> var_509_perm_1 = const()[name = tensor<string, []>("op_509_perm_1"), val = tensor<int32, [3]>([0, 2, 1])];
            tensor<int32, [1]> x_kv_5_axes_1 = const()[name = tensor<string, []>("x_kv_5_axes_1"), val = tensor<int32, [1]>([-1])];
            tensor<fp16, [64]> model_backbone_layers_1_1_0_attn_norm_weight_to_fp16 = const()[name = tensor<string, []>("model_backbone_layers_1_1_0_attn_norm_weight_to_fp16"), val = tensor<fp16, [64]>(BLOBFILE(path = tensor<string, []>("@model_path/weights/weight.bin"), offset = tensor<uint64, []>(500416)))];
            tensor<fp16, [64]> model_backbone_layers_1_1_0_attn_norm_bias_to_fp16 = const()[name = tensor<string, []>("model_backbone_layers_1_1_0_attn_norm_bias_to_fp16"), val = tensor<fp16, [64]>(BLOBFILE(path = tensor<string, []>("@model_path/weights/weight.bin"), offset = tensor<uint64, []>(500608)))];
            tensor<fp16, [1, 256, 64]> transpose_103 = transpose(perm = var_509_perm_1, x = var_508_cast_fp16)[name = tensor<string, []>("transpose_103")];
            tensor<fp16, [1, 256, 64]> x_kv_5_cast_fp16 = layer_norm(axes = x_kv_5_axes_1, beta = model_backbone_layers_1_1_0_attn_norm_bias_to_fp16, epsilon = var_50_to_fp16, gamma = model_backbone_layers_1_1_0_attn_norm_weight_to_fp16, x = transpose_103)[name = tensor<string, []>("x_kv_5_cast_fp16")];
            tensor<int32, [3]> query_5_perm_1 = const()[name = tensor<string, []>("query_5_perm_1"), val = tensor<int32, [3]>([1, 0, 2])];
            tensor<int32, [3]> key_5_perm_1 = const()[name = tensor<string, []>("key_5_perm_1"), val = tensor<int32, [3]>([1, 0, 2])];
            tensor<fp16, [64, 64]> var_539_0_to_fp16 = const()[name = tensor<string, []>("op_539_0_to_fp16"), val = tensor<fp16, [64, 64]>(BLOBFILE(path = tensor<string, []>("@model_path/weights/weight.bin"), offset = tensor<uint64, []>(500800)))];
            tensor<fp16, [64]> var_546_0_to_fp16 = const()[name = tensor<string, []>("op_546_0_to_fp16"), val = tensor<fp16, [64]>(BLOBFILE(path = tensor<string, []>("@model_path/weights/weight.bin"), offset = tensor<uint64, []>(509056)))];
            tensor<fp16, [4096, 1, 64]> transpose_102 = transpose(perm = query_5_perm_1, x = x_39_cast_fp16)[name = tensor<string, []>("transpose_102")];
            tensor<fp16, [4096, 1, 64]> linear_30_cast_fp16 = linear(bias = var_546_0_to_fp16, weight = var_539_0_to_fp16, x = transpose_102)[name = tensor<string, []>("linear_30_cast_fp16")];
            tensor<fp16, [128, 64]> var_539_1_to_fp16 = const()[name = tensor<string, []>("op_539_1_to_fp16"), val = tensor<fp16, [128, 64]>(BLOBFILE(path = tensor<string, []>("@model_path/weights/weight.bin"), offset = tensor<uint64, []>(509248)))];
            tensor<fp16, [128]> var_546_1_to_fp16 = const()[name = tensor<string, []>("op_546_1_to_fp16"), val = tensor<fp16, [128]>(BLOBFILE(path = tensor<string, []>("@model_path/weights/weight.bin"), offset = tensor<uint64, []>(525696)))];
            tensor<fp16, [256, 1, 64]> transpose_101 = transpose(perm = key_5_perm_1, x = x_kv_5_cast_fp16)[name = tensor<string, []>("transpose_101")];
            tensor<fp16, [256, 1, 128]> linear_31_cast_fp16 = linear(bias = var_546_1_to_fp16, weight = var_539_1_to_fp16, x = transpose_101)[name = tensor<string, []>("linear_31_cast_fp16")];
            tensor<int32, [2]> var_551_split_sizes_1 = const()[name = tensor<string, []>("op_551_split_sizes_1"), val = tensor<int32, [2]>([64, 64])];
            tensor<int32, []> var_551_axis_1 = const()[name = tensor<string, []>("op_551_axis_1"), val = tensor<int32, []>(-1)];
            tensor<fp16, [256, 1, 64]> var_551_cast_fp16_0, tensor<fp16, [256, 1, 64]> var_551_cast_fp16_1 = split(axis = var_551_axis_1, split_sizes = var_551_split_sizes_1, x = linear_31_cast_fp16)[name = tensor<string, []>("op_551_cast_fp16")];
            tensor<int32, [3]> var_557 = const()[name = tensor<string, []>("op_557"), val = tensor<int32, [3]>([4096, 2, 32])];
            tensor<fp16, [4096, 2, 32]> var_558_cast_fp16 = reshape(shape = var_557, x = linear_30_cast_fp16)[name = tensor<string, []>("op_558_cast_fp16")];
            tensor<int32, [3]> var_565 = const()[name = tensor<string, []>("op_565"), val = tensor<int32, [3]>([256, 2, 32])];
            tensor<fp16, [256, 2, 32]> var_566_cast_fp16 = reshape(shape = var_565, x = var_551_cast_fp16_0)[name = tensor<string, []>("op_566_cast_fp16")];
            tensor<int32, [3]> var_573 = const()[name = tensor<string, []>("op_573"), val = tensor<int32, [3]>([256, 2, 32])];
            tensor<fp16, [256, 2, 32]> var_574_cast_fp16 = reshape(shape = var_573, x = var_551_cast_fp16_1)[name = tensor<string, []>("op_574_cast_fp16")];
            tensor<int32, [3]> v_11_perm_1 = const()[name = tensor<string, []>("v_11_perm_1"), val = tensor<int32, [3]>([1, 0, 2])];
            tensor<fp16, []> _inversed_q_scaled_5_y_0_to_fp16 = const()[name = tensor<string, []>("_inversed_q_scaled_5_y_0_to_fp16"), val = tensor<fp16, []>(0x1.6ap-3)];
            tensor<fp16, [4096, 2, 32]> _inversed_q_scaled_5_cast_fp16 = mul(x = var_558_cast_fp16, y = _inversed_q_scaled_5_y_0_to_fp16)[name = tensor<string, []>("_inversed_q_scaled_5_cast_fp16")];
            tensor<bool, []> input_45_transpose_x_1 = const()[name = tensor<string, []>("input_45_transpose_x_1"), val = tensor<bool, []>(false)];
            tensor<bool, []> input_45_transpose_y_1 = const()[name = tensor<string, []>("input_45_transpose_y_1"), val = tensor<bool, []>(false)];
            tensor<int32, [3]> transpose_28_perm_0 = const()[name = tensor<string, []>("transpose_28_perm_0"), val = tensor<int32, [3]>([1, 0, 2])];
            tensor<int32, [3]> transpose_29_perm_0 = const()[name = tensor<string, []>("transpose_29_perm_0"), val = tensor<int32, [3]>([1, 2, 0])];
            tensor<fp16, [2, 32, 256]> transpose_98 = transpose(perm = transpose_29_perm_0, x = var_566_cast_fp16)[name = tensor<string, []>("transpose_98")];
            tensor<fp16, [2, 4096, 32]> transpose_99 = transpose(perm = transpose_28_perm_0, x = _inversed_q_scaled_5_cast_fp16)[name = tensor<string, []>("transpose_99")];
            tensor<fp16, [2, 4096, 256]> input_45_cast_fp16 = matmul(transpose_x = input_45_transpose_x_1, transpose_y = input_45_transpose_y_1, x = transpose_99, y = transpose_98)[name = tensor<string, []>("input_45_cast_fp16")];
            tensor<fp16, [2, 4096, 256]> attn_output_weights_9_cast_fp16 = softmax(axis = var_49, x = input_45_cast_fp16)[name = tensor<string, []>("attn_output_weights_9_cast_fp16")];
            tensor<bool, []> attn_output_13_transpose_x_1 = const()[name = tensor<string, []>("attn_output_13_transpose_x_1"), val = tensor<bool, []>(false)];
            tensor<bool, []> attn_output_13_transpose_y_1 = const()[name = tensor<string, []>("attn_output_13_transpose_y_1"), val = tensor<bool, []>(false)];
            tensor<fp16, [2, 256, 32]> transpose_100 = transpose(perm = v_11_perm_1, x = var_574_cast_fp16)[name = tensor<string, []>("transpose_100")];
            tensor<fp16, [2, 4096, 32]> attn_output_13_cast_fp16 = matmul(transpose_x = attn_output_13_transpose_x_1, transpose_y = attn_output_13_transpose_y_1, x = attn_output_weights_9_cast_fp16, y = transpose_100)[name = tensor<string, []>("attn_output_13_cast_fp16")];
            tensor<int32, [3]> var_582_perm_1 = const()[name = tensor<string, []>("op_582_perm_1"), val = tensor<int32, [3]>([1, 0, 2])];
            tensor<int32, [2]> var_586 = const()[name = tensor<string, []>("op_586"), val = tensor<int32, [2]>([4096, 64])];
            tensor<fp16, [4096, 2, 32]> transpose_97 = transpose(perm = var_582_perm_1, x = attn_output_13_cast_fp16)[name = tensor<string, []>("transpose_97")];
            tensor<fp16, [4096, 64]> attn_output_15_cast_fp16 = reshape(shape = var_586, x = transpose_97)[name = tensor<string, []>("attn_output_15_cast_fp16")];
            tensor<fp16, [64, 64]> model_backbone_layers_1_1_0_attn_attn_out_proj_weight_to_fp16 = const()[name = tensor<string, []>("model_backbone_layers_1_1_0_attn_attn_out_proj_weight_to_fp16"), val = tensor<fp16, [64, 64]>(BLOBFILE(path = tensor<string, []>("@model_path/weights/weight.bin"), offset = tensor<uint64, []>(526016)))];
            tensor<fp16, [64]> model_backbone_layers_1_1_0_attn_attn_out_proj_bias_to_fp16 = const()[name = tensor<string, []>("model_backbone_layers_1_1_0_attn_attn_out_proj_bias_to_fp16"), val = tensor<fp16, [64]>(BLOBFILE(path = tensor<string, []>("@model_path/weights/weight.bin"), offset = tensor<uint64, []>(534272)))];
            tensor<fp16, [4096, 64]> linear_32_cast_fp16 = linear(bias = model_backbone_layers_1_1_0_attn_attn_out_proj_bias_to_fp16, weight = model_backbone_layers_1_1_0_attn_attn_out_proj_weight_to_fp16, x = attn_output_15_cast_fp16)[name = tensor<string, []>("linear_32_cast_fp16")];
            tensor<int32, [3]> var_590 = const()[name = tensor<string, []>("op_590"), val = tensor<int32, [3]>([4096, 1, 64])];
            tensor<fp16, [4096, 1, 64]> out_13_cast_fp16 = reshape(shape = var_590, x = linear_32_cast_fp16)[name = tensor<string, []>("out_13_cast_fp16")];
            tensor<int32, [3]> input_47_perm_1 = const()[name = tensor<string, []>("input_47_perm_1"), val = tensor<int32, [3]>([1, 0, 2])];
            tensor<fp16, [1, 4096, 64]> transpose_96 = transpose(perm = input_47_perm_1, x = out_13_cast_fp16)[name = tensor<string, []>("transpose_96")];
            tensor<fp16, [1, 4096, 64]> input_49_cast_fp16 = add(x = input_41_cast_fp16, y = transpose_96)[name = tensor<string, []>("input_49_cast_fp16")];
            tensor<int32, [1]> x_45_axes_1 = const()[name = tensor<string, []>("x_45_axes_1"), val = tensor<int32, [1]>([-1])];
            tensor<fp16, [64]> model_backbone_layers_1_1_0_norm2_weight_to_fp16 = const()[name = tensor<string, []>("model_backbone_layers_1_1_0_norm2_weight_to_fp16"), val = tensor<fp16, [64]>(BLOBFILE(path = tensor<string, []>("@model_path/weights/weight.bin"), offset = tensor<uint64, []>(534464)))];
            tensor<fp16, [64]> model_backbone_layers_1_1_0_norm2_bias_to_fp16 = const()[name = tensor<string, []>("model_backbone_layers_1_1_0_norm2_bias_to_fp16"), val = tensor<fp16, [64]>(BLOBFILE(path = tensor<string, []>("@model_path/weights/weight.bin"), offset = tensor<uint64, []>(534656)))];
            tensor<fp16, [1, 4096, 64]> x_45_cast_fp16 = layer_norm(axes = x_45_axes_1, beta = model_backbone_layers_1_1_0_norm2_bias_to_fp16, epsilon = var_50_to_fp16, gamma = model_backbone_layers_1_1_0_norm2_weight_to_fp16, x = input_49_cast_fp16)[name = tensor<string, []>("x_45_cast_fp16")];
            tensor<int32, [3]> var_602_perm_1 = const()[name = tensor<string, []>("op_602_perm_1"), val = tensor<int32, [3]>([0, 2, 1])];
            tensor<int32, [4]> var_603 = const()[name = tensor<string, []>("op_603"), val = tensor<int32, [4]>([1, 64, 64, 64])];
            tensor<fp16, [1, 64, 4096]> transpose_95 = transpose(perm = var_602_perm_1, x = x_45_cast_fp16)[name = tensor<string, []>("transpose_95")];
            tensor<fp16, [1, 64, 64, 64]> x_47_cast_fp16 = reshape(shape = var_603, x = transpose_95)[name = tensor<string, []>("x_47_cast_fp16")];
            tensor<int32, [2]> var_610 = const()[name = tensor<string, []>("op_610"), val = tensor<int32, [2]>([1, 1])];
            tensor<int32, [2]> var_612 = const()[name = tensor<string, []>("op_612"), val = tensor<int32, [2]>([1, 1])];
            tensor<string, []> x_49_pad_type_1 = const()[name = tensor<string, []>("x_49_pad_type_1"), val = tensor<string, []>("custom")];
            tensor<int32, [4]> x_49_pad_1 = const()[name = tensor<string, []>("x_49_pad_1"), val = tensor<int32, [4]>([0, 0, 0, 0])];
            tensor<fp16, [256, 64, 1, 1]> model_backbone_layers_1_1_0_ffn_layers_0_weight_to_fp16 = const()[name = tensor<string, []>("model_backbone_layers_1_1_0_ffn_layers_0_weight_to_fp16"), val = tensor<fp16, [256, 64, 1, 1]>(BLOBFILE(path = tensor<string, []>("@model_path/weights/weight.bin"), offset = tensor<uint64, []>(534848)))];
            tensor<fp16, [256]> model_backbone_layers_1_1_0_ffn_layers_0_bias_to_fp16 = const()[name = tensor<string, []>("model_backbone_layers_1_1_0_ffn_layers_0_bias_to_fp16"), val = tensor<fp16, [256]>(BLOBFILE(path = tensor<string, []>("@model_path/weights/weight.bin"), offset = tensor<uint64, []>(567680)))];
            tensor<fp16, [1, 256, 64, 64]> x_49_cast_fp16 = conv(bias = model_backbone_layers_1_1_0_ffn_layers_0_bias_to_fp16, dilations = var_612, groups = var_45, pad = x_49_pad_1, pad_type = x_49_pad_type_1, strides = var_610, weight = model_backbone_layers_1_1_0_ffn_layers_0_weight_to_fp16, x = x_47_cast_fp16)[name = tensor<string, []>("x_49_cast_fp16")];
            tensor<int32, [2]> var_617 = const()[name = tensor<string, []>("op_617"), val = tensor<int32, [2]>([1, 1])];
            tensor<int32, [2]> var_619 = const()[name = tensor<string, []>("op_619"), val = tensor<int32, [2]>([1, 1])];
            tensor<string, []> input_51_pad_type_1 = const()[name = tensor<string, []>("input_51_pad_type_1"), val = tensor<string, []>("custom")];
            tensor<int32, [4]> input_51_pad_1 = const()[name = tensor<string, []>("input_51_pad_1"), val = tensor<int32, [4]>([1, 1, 1, 1])];
            tensor<fp16, [256, 1, 3, 3]> model_backbone_layers_1_1_0_ffn_layers_1_weight_to_fp16 = const()[name = tensor<string, []>("model_backbone_layers_1_1_0_ffn_layers_1_weight_to_fp16"), val = tensor<fp16, [256, 1, 3, 3]>(BLOBFILE(path = tensor<string, []>("@model_path/weights/weight.bin"), offset = tensor<uint64, []>(568256)))];
            tensor<fp16, [256]> model_backbone_layers_1_1_0_ffn_layers_1_bias_to_fp16 = const()[name = tensor<string, []>("model_backbone_layers_1_1_0_ffn_layers_1_bias_to_fp16"), val = tensor<fp16, [256]>(BLOBFILE(path = tensor<string, []>("@model_path/weights/weight.bin"), offset = tensor<uint64, []>(572928)))];
            tensor<fp16, [1, 256, 64, 64]> input_51_cast_fp16 = conv(bias = model_backbone_layers_1_1_0_ffn_layers_1_bias_to_fp16, dilations = var_619, groups = var_31, pad = input_51_pad_1, pad_type = input_51_pad_type_1, strides = var_617, weight = model_backbone_layers_1_1_0_ffn_layers_1_weight_to_fp16, x = x_49_cast_fp16)[name = tensor<string, []>("input_51_cast_fp16")];
            tensor<string, []> input_53_mode_1 = const()[name = tensor<string, []>("input_53_mode_1"), val = tensor<string, []>("EXACT")];
            tensor<fp16, [1, 256, 64, 64]> input_53_cast_fp16 = gelu(mode = input_53_mode_1, x = input_51_cast_fp16)[name = tensor<string, []>("input_53_cast_fp16")];
            tensor<int32, [2]> var_626 = const()[name = tensor<string, []>("op_626"), val = tensor<int32, [2]>([1, 1])];
            tensor<int32, [2]> var_628 = const()[name = tensor<string, []>("op_628"), val = tensor<int32, [2]>([1, 1])];
            tensor<string, []> input_55_pad_type_1 = const()[name = tensor<string, []>("input_55_pad_type_1"), val = tensor<string, []>("custom")];
            tensor<int32, [4]> input_55_pad_1 = const()[name = tensor<string, []>("input_55_pad_1"), val = tensor<int32, [4]>([0, 0, 0, 0])];
            tensor<fp16, [64, 256, 1, 1]> model_backbone_layers_1_1_0_ffn_layers_4_weight_to_fp16 = const()[name = tensor<string, []>("model_backbone_layers_1_1_0_ffn_layers_4_weight_to_fp16"), val = tensor<fp16, [64, 256, 1, 1]>(BLOBFILE(path = tensor<string, []>("@model_path/weights/weight.bin"), offset = tensor<uint64, []>(573504)))];
            tensor<fp16, [64]> model_backbone_layers_1_1_0_ffn_layers_4_bias_to_fp16 = const()[name = tensor<string, []>("model_backbone_layers_1_1_0_ffn_layers_4_bias_to_fp16"), val = tensor<fp16, [64]>(BLOBFILE(path = tensor<string, []>("@model_path/weights/weight.bin"), offset = tensor<uint64, []>(606336)))];
            tensor<fp16, [1, 64, 64, 64]> input_55_cast_fp16 = conv(bias = model_backbone_layers_1_1_0_ffn_layers_4_bias_to_fp16, dilations = var_628, groups = var_45, pad = input_55_pad_1, pad_type = input_55_pad_type_1, strides = var_626, weight = model_backbone_layers_1_1_0_ffn_layers_4_weight_to_fp16, x = input_53_cast_fp16)[name = tensor<string, []>("input_55_cast_fp16")];
            tensor<int32, [3]> concat_25 = const()[name = tensor<string, []>("concat_25"), val = tensor<int32, [3]>([1, 64, 4096])];
            tensor<fp16, [1, 64, 4096]> var_632_cast_fp16 = reshape(shape = concat_25, x = input_55_cast_fp16)[name = tensor<string, []>("op_632_cast_fp16")];
            tensor<int32, [3]> var_633_perm_1 = const()[name = tensor<string, []>("op_633_perm_1"), val = tensor<int32, [3]>([0, 2, 1])];
            tensor<fp16, [1, 4096, 64]> transpose_94 = transpose(perm = var_633_perm_1, x = var_632_cast_fp16)[name = tensor<string, []>("transpose_94")];
            tensor<fp16, [1, 4096, 64]> input_57_cast_fp16 = add(x = input_49_cast_fp16, y = transpose_94)[name = tensor<string, []>("input_57_cast_fp16")];
            tensor<int32, [1]> x_55_axes_1 = const()[name = tensor<string, []>("x_55_axes_1"), val = tensor<int32, [1]>([-1])];
            tensor<fp16, [64]> model_backbone_layers_1_1_1_norm1_weight_to_fp16 = const()[name = tensor<string, []>("model_backbone_layers_1_1_1_norm1_weight_to_fp16"), val = tensor<fp16, [64]>(BLOBFILE(path = tensor<string, []>("@model_path/weights/weight.bin"), offset = tensor<uint64, []>(606528)))];
            tensor<fp16, [64]> model_backbone_layers_1_1_1_norm1_bias_to_fp16 = const()[name = tensor<string, []>("model_backbone_layers_1_1_1_norm1_bias_to_fp16"), val = tensor<fp16, [64]>(BLOBFILE(path = tensor<string, []>("@model_path/weights/weight.bin"), offset = tensor<uint64, []>(606720)))];
            tensor<fp16, [1, 4096, 64]> x_55_cast_fp16 = layer_norm(axes = x_55_axes_1, beta = model_backbone_layers_1_1_1_norm1_bias_to_fp16, epsilon = var_50_to_fp16, gamma = model_backbone_layers_1_1_1_norm1_weight_to_fp16, x = input_57_cast_fp16)[name = tensor<string, []>("x_55_cast_fp16")];
            tensor<int32, [3]> var_649_perm_1 = const()[name = tensor<string, []>("op_649_perm_1"), val = tensor<int32, [3]>([0, 2, 1])];
            tensor<int32, [4]> var_650 = const()[name = tensor<string, []>("op_650"), val = tensor<int32, [4]>([1, 64, 64, 64])];
            tensor<fp16, [1, 64, 4096]> transpose_93 = transpose(perm = var_649_perm_1, x = x_55_cast_fp16)[name = tensor<string, []>("transpose_93")];
            tensor<fp16, [1, 64, 64, 64]> x_57_cast_fp16 = reshape(shape = var_650, x = transpose_93)[name = tensor<string, []>("x_57_cast_fp16")];
            tensor<int32, [2]> var_654 = const()[name = tensor<string, []>("op_654"), val = tensor<int32, [2]>([4, 4])];
            tensor<int32, [2]> var_656 = const()[name = tensor<string, []>("op_656"), val = tensor<int32, [2]>([1, 1])];
            tensor<string, []> x_59_pad_type_1 = const()[name = tensor<string, []>("x_59_pad_type_1"), val = tensor<string, []>("custom")];
            tensor<int32, [4]> x_59_pad_1 = const()[name = tensor<string, []>("x_59_pad_1"), val = tensor<int32, [4]>([0, 0, 0, 0])];
            tensor<fp16, [64, 64, 4, 4]> model_backbone_layers_1_1_1_attn_sr_weight_to_fp16 = const()[name = tensor<string, []>("model_backbone_layers_1_1_1_attn_sr_weight_to_fp16"), val = tensor<fp16, [64, 64, 4, 4]>(BLOBFILE(path = tensor<string, []>("@model_path/weights/weight.bin"), offset = tensor<uint64, []>(606912)))];
            tensor<fp16, [64]> model_backbone_layers_1_1_1_attn_sr_bias_to_fp16 = const()[name = tensor<string, []>("model_backbone_layers_1_1_1_attn_sr_bias_to_fp16"), val = tensor<fp16, [64]>(BLOBFILE(path = tensor<string, []>("@model_path/weights/weight.bin"), offset = tensor<uint64, []>(738048)))];
            tensor<fp16, [1, 64, 16, 16]> x_59_cast_fp16 = conv(bias = model_backbone_layers_1_1_1_attn_sr_bias_to_fp16, dilations = var_656, groups = var_45, pad = x_59_pad_1, pad_type = x_59_pad_type_1, strides = var_654, weight = model_backbone_layers_1_1_1_attn_sr_weight_to_fp16, x = x_57_cast_fp16)[name = tensor<string, []>("x_59_cast_fp16")];
            tensor<int32, [3]> concat_26 = const()[name = tensor<string, []>("concat_26"), val = tensor<int32, [3]>([1, 64, 256])];
            tensor<fp16, [1, 64, 256]> var_659_cast_fp16 = reshape(shape = concat_26, x = x_59_cast_fp16)[name = tensor<string, []>("op_659_cast_fp16")];
            tensor<int32, [3]> var_660_perm_1 = const()[name = tensor<string, []>("op_660_perm_1"), val = tensor<int32, [3]>([0, 2, 1])];
            tensor<int32, [1]> x_kv_7_axes_1 = const()[name = tensor<string, []>("x_kv_7_axes_1"), val = tensor<int32, [1]>([-1])];
            tensor<fp16, [64]> model_backbone_layers_1_1_1_attn_norm_weight_to_fp16 = const()[name = tensor<string, []>("model_backbone_layers_1_1_1_attn_norm_weight_to_fp16"), val = tensor<fp16, [64]>(BLOBFILE(path = tensor<string, []>("@model_path/weights/weight.bin"), offset = tensor<uint64, []>(738240)))];
            tensor<fp16, [64]> model_backbone_layers_1_1_1_attn_norm_bias_to_fp16 = const()[name = tensor<string, []>("model_backbone_layers_1_1_1_attn_norm_bias_to_fp16"), val = tensor<fp16, [64]>(BLOBFILE(path = tensor<string, []>("@model_path/weights/weight.bin"), offset = tensor<uint64, []>(738432)))];
            tensor<fp16, [1, 256, 64]> transpose_92 = transpose(perm = var_660_perm_1, x = var_659_cast_fp16)[name = tensor<string, []>("transpose_92")];
            tensor<fp16, [1, 256, 64]> x_kv_7_cast_fp16 = layer_norm(axes = x_kv_7_axes_1, beta = model_backbone_layers_1_1_1_attn_norm_bias_to_fp16, epsilon = var_50_to_fp16, gamma = model_backbone_layers_1_1_1_attn_norm_weight_to_fp16, x = transpose_92)[name = tensor<string, []>("x_kv_7_cast_fp16")];
            tensor<int32, [3]> query_7_perm_1 = const()[name = tensor<string, []>("query_7_perm_1"), val = tensor<int32, [3]>([1, 0, 2])];
            tensor<int32, [3]> key_7_perm_1 = const()[name = tensor<string, []>("key_7_perm_1"), val = tensor<int32, [3]>([1, 0, 2])];
            tensor<fp16, [64, 64]> var_690_0_to_fp16 = const()[name = tensor<string, []>("op_690_0_to_fp16"), val = tensor<fp16, [64, 64]>(BLOBFILE(path = tensor<string, []>("@model_path/weights/weight.bin"), offset = tensor<uint64, []>(738624)))];
            tensor<fp16, [64]> var_697_0_to_fp16 = const()[name = tensor<string, []>("op_697_0_to_fp16"), val = tensor<fp16, [64]>(BLOBFILE(path = tensor<string, []>("@model_path/weights/weight.bin"), offset = tensor<uint64, []>(746880)))];
            tensor<fp16, [4096, 1, 64]> transpose_91 = transpose(perm = query_7_perm_1, x = x_55_cast_fp16)[name = tensor<string, []>("transpose_91")];
            tensor<fp16, [4096, 1, 64]> linear_33_cast_fp16 = linear(bias = var_697_0_to_fp16, weight = var_690_0_to_fp16, x = transpose_91)[name = tensor<string, []>("linear_33_cast_fp16")];
            tensor<fp16, [128, 64]> var_690_1_to_fp16 = const()[name = tensor<string, []>("op_690_1_to_fp16"), val = tensor<fp16, [128, 64]>(BLOBFILE(path = tensor<string, []>("@model_path/weights/weight.bin"), offset = tensor<uint64, []>(747072)))];
            tensor<fp16, [128]> var_697_1_to_fp16 = const()[name = tensor<string, []>("op_697_1_to_fp16"), val = tensor<fp16, [128]>(BLOBFILE(path = tensor<string, []>("@model_path/weights/weight.bin"), offset = tensor<uint64, []>(763520)))];
            tensor<fp16, [256, 1, 64]> transpose_90 = transpose(perm = key_7_perm_1, x = x_kv_7_cast_fp16)[name = tensor<string, []>("transpose_90")];
            tensor<fp16, [256, 1, 128]> linear_34_cast_fp16 = linear(bias = var_697_1_to_fp16, weight = var_690_1_to_fp16, x = transpose_90)[name = tensor<string, []>("linear_34_cast_fp16")];
            tensor<int32, [2]> var_702_split_sizes_1 = const()[name = tensor<string, []>("op_702_split_sizes_1"), val = tensor<int32, [2]>([64, 64])];
            tensor<int32, []> var_702_axis_1 = const()[name = tensor<string, []>("op_702_axis_1"), val = tensor<int32, []>(-1)];
            tensor<fp16, [256, 1, 64]> var_702_cast_fp16_0, tensor<fp16, [256, 1, 64]> var_702_cast_fp16_1 = split(axis = var_702_axis_1, split_sizes = var_702_split_sizes_1, x = linear_34_cast_fp16)[name = tensor<string, []>("op_702_cast_fp16")];
            tensor<int32, [3]> var_708 = const()[name = tensor<string, []>("op_708"), val = tensor<int32, [3]>([4096, 2, 32])];
            tensor<fp16, [4096, 2, 32]> var_709_cast_fp16 = reshape(shape = var_708, x = linear_33_cast_fp16)[name = tensor<string, []>("op_709_cast_fp16")];
            tensor<int32, [3]> var_716 = const()[name = tensor<string, []>("op_716"), val = tensor<int32, [3]>([256, 2, 32])];
            tensor<fp16, [256, 2, 32]> var_717_cast_fp16 = reshape(shape = var_716, x = var_702_cast_fp16_0)[name = tensor<string, []>("op_717_cast_fp16")];
            tensor<int32, [3]> var_724 = const()[name = tensor<string, []>("op_724"), val = tensor<int32, [3]>([256, 2, 32])];
            tensor<fp16, [256, 2, 32]> var_725_cast_fp16 = reshape(shape = var_724, x = var_702_cast_fp16_1)[name = tensor<string, []>("op_725_cast_fp16")];
            tensor<int32, [3]> v_15_perm_1 = const()[name = tensor<string, []>("v_15_perm_1"), val = tensor<int32, [3]>([1, 0, 2])];
            tensor<fp16, []> _inversed_q_scaled_7_y_0_to_fp16 = const()[name = tensor<string, []>("_inversed_q_scaled_7_y_0_to_fp16"), val = tensor<fp16, []>(0x1.6ap-3)];
            tensor<fp16, [4096, 2, 32]> _inversed_q_scaled_7_cast_fp16 = mul(x = var_709_cast_fp16, y = _inversed_q_scaled_7_y_0_to_fp16)[name = tensor<string, []>("_inversed_q_scaled_7_cast_fp16")];
            tensor<bool, []> input_61_transpose_x_1 = const()[name = tensor<string, []>("input_61_transpose_x_1"), val = tensor<bool, []>(false)];
            tensor<bool, []> input_61_transpose_y_1 = const()[name = tensor<string, []>("input_61_transpose_y_1"), val = tensor<bool, []>(false)];
            tensor<int32, [3]> transpose_30_perm_0 = const()[name = tensor<string, []>("transpose_30_perm_0"), val = tensor<int32, [3]>([1, 0, 2])];
            tensor<int32, [3]> transpose_31_perm_0 = const()[name = tensor<string, []>("transpose_31_perm_0"), val = tensor<int32, [3]>([1, 2, 0])];
            tensor<fp16, [2, 32, 256]> transpose_87 = transpose(perm = transpose_31_perm_0, x = var_717_cast_fp16)[name = tensor<string, []>("transpose_87")];
            tensor<fp16, [2, 4096, 32]> transpose_88 = transpose(perm = transpose_30_perm_0, x = _inversed_q_scaled_7_cast_fp16)[name = tensor<string, []>("transpose_88")];
            tensor<fp16, [2, 4096, 256]> input_61_cast_fp16 = matmul(transpose_x = input_61_transpose_x_1, transpose_y = input_61_transpose_y_1, x = transpose_88, y = transpose_87)[name = tensor<string, []>("input_61_cast_fp16")];
            tensor<fp16, [2, 4096, 256]> attn_output_weights_13_cast_fp16 = softmax(axis = var_49, x = input_61_cast_fp16)[name = tensor<string, []>("attn_output_weights_13_cast_fp16")];
            tensor<bool, []> attn_output_19_transpose_x_1 = const()[name = tensor<string, []>("attn_output_19_transpose_x_1"), val = tensor<bool, []>(false)];
            tensor<bool, []> attn_output_19_transpose_y_1 = const()[name = tensor<string, []>("attn_output_19_transpose_y_1"), val = tensor<bool, []>(false)];
            tensor<fp16, [2, 256, 32]> transpose_89 = transpose(perm = v_15_perm_1, x = var_725_cast_fp16)[name = tensor<string, []>("transpose_89")];
            tensor<fp16, [2, 4096, 32]> attn_output_19_cast_fp16 = matmul(transpose_x = attn_output_19_transpose_x_1, transpose_y = attn_output_19_transpose_y_1, x = attn_output_weights_13_cast_fp16, y = transpose_89)[name = tensor<string, []>("attn_output_19_cast_fp16")];
            tensor<int32, [3]> var_733_perm_1 = const()[name = tensor<string, []>("op_733_perm_1"), val = tensor<int32, [3]>([1, 0, 2])];
            tensor<int32, [2]> var_737 = const()[name = tensor<string, []>("op_737"), val = tensor<int32, [2]>([4096, 64])];
            tensor<fp16, [4096, 2, 32]> transpose_86 = transpose(perm = var_733_perm_1, x = attn_output_19_cast_fp16)[name = tensor<string, []>("transpose_86")];
            tensor<fp16, [4096, 64]> attn_output_21_cast_fp16 = reshape(shape = var_737, x = transpose_86)[name = tensor<string, []>("attn_output_21_cast_fp16")];
            tensor<fp16, [64, 64]> model_backbone_layers_1_1_1_attn_attn_out_proj_weight_to_fp16 = const()[name = tensor<string, []>("model_backbone_layers_1_1_1_attn_attn_out_proj_weight_to_fp16"), val = tensor<fp16, [64, 64]>(BLOBFILE(path = tensor<string, []>("@model_path/weights/weight.bin"), offset = tensor<uint64, []>(763840)))];
            tensor<fp16, [64]> model_backbone_layers_1_1_1_attn_attn_out_proj_bias_to_fp16 = const()[name = tensor<string, []>("model_backbone_layers_1_1_1_attn_attn_out_proj_bias_to_fp16"), val = tensor<fp16, [64]>(BLOBFILE(path = tensor<string, []>("@model_path/weights/weight.bin"), offset = tensor<uint64, []>(772096)))];
            tensor<fp16, [4096, 64]> linear_35_cast_fp16 = linear(bias = model_backbone_layers_1_1_1_attn_attn_out_proj_bias_to_fp16, weight = model_backbone_layers_1_1_1_attn_attn_out_proj_weight_to_fp16, x = attn_output_21_cast_fp16)[name = tensor<string, []>("linear_35_cast_fp16")];
            tensor<int32, [3]> var_741 = const()[name = tensor<string, []>("op_741"), val = tensor<int32, [3]>([4096, 1, 64])];
            tensor<fp16, [4096, 1, 64]> out_19_cast_fp16 = reshape(shape = var_741, x = linear_35_cast_fp16)[name = tensor<string, []>("out_19_cast_fp16")];
            tensor<int32, [3]> input_63_perm_1 = const()[name = tensor<string, []>("input_63_perm_1"), val = tensor<int32, [3]>([1, 0, 2])];
            tensor<fp16, [1, 4096, 64]> transpose_85 = transpose(perm = input_63_perm_1, x = out_19_cast_fp16)[name = tensor<string, []>("transpose_85")];
            tensor<fp16, [1, 4096, 64]> input_65_cast_fp16 = add(x = input_57_cast_fp16, y = transpose_85)[name = tensor<string, []>("input_65_cast_fp16")];
            tensor<int32, [1]> x_61_axes_1 = const()[name = tensor<string, []>("x_61_axes_1"), val = tensor<int32, [1]>([-1])];
            tensor<fp16, [64]> model_backbone_layers_1_1_1_norm2_weight_to_fp16 = const()[name = tensor<string, []>("model_backbone_layers_1_1_1_norm2_weight_to_fp16"), val = tensor<fp16, [64]>(BLOBFILE(path = tensor<string, []>("@model_path/weights/weight.bin"), offset = tensor<uint64, []>(772288)))];
            tensor<fp16, [64]> model_backbone_layers_1_1_1_norm2_bias_to_fp16 = const()[name = tensor<string, []>("model_backbone_layers_1_1_1_norm2_bias_to_fp16"), val = tensor<fp16, [64]>(BLOBFILE(path = tensor<string, []>("@model_path/weights/weight.bin"), offset = tensor<uint64, []>(772480)))];
            tensor<fp16, [1, 4096, 64]> x_61_cast_fp16 = layer_norm(axes = x_61_axes_1, beta = model_backbone_layers_1_1_1_norm2_bias_to_fp16, epsilon = var_50_to_fp16, gamma = model_backbone_layers_1_1_1_norm2_weight_to_fp16, x = input_65_cast_fp16)[name = tensor<string, []>("x_61_cast_fp16")];
            tensor<int32, [3]> var_753_perm_1 = const()[name = tensor<string, []>("op_753_perm_1"), val = tensor<int32, [3]>([0, 2, 1])];
            tensor<int32, [4]> var_754 = const()[name = tensor<string, []>("op_754"), val = tensor<int32, [4]>([1, 64, 64, 64])];
            tensor<fp16, [1, 64, 4096]> transpose_84 = transpose(perm = var_753_perm_1, x = x_61_cast_fp16)[name = tensor<string, []>("transpose_84")];
            tensor<fp16, [1, 64, 64, 64]> x_63_cast_fp16 = reshape(shape = var_754, x = transpose_84)[name = tensor<string, []>("x_63_cast_fp16")];
            tensor<int32, [2]> var_761 = const()[name = tensor<string, []>("op_761"), val = tensor<int32, [2]>([1, 1])];
            tensor<int32, [2]> var_763 = const()[name = tensor<string, []>("op_763"), val = tensor<int32, [2]>([1, 1])];
            tensor<string, []> x_65_pad_type_1 = const()[name = tensor<string, []>("x_65_pad_type_1"), val = tensor<string, []>("custom")];
            tensor<int32, [4]> x_65_pad_1 = const()[name = tensor<string, []>("x_65_pad_1"), val = tensor<int32, [4]>([0, 0, 0, 0])];
            tensor<fp16, [256, 64, 1, 1]> model_backbone_layers_1_1_1_ffn_layers_0_weight_to_fp16 = const()[name = tensor<string, []>("model_backbone_layers_1_1_1_ffn_layers_0_weight_to_fp16"), val = tensor<fp16, [256, 64, 1, 1]>(BLOBFILE(path = tensor<string, []>("@model_path/weights/weight.bin"), offset = tensor<uint64, []>(772672)))];
            tensor<fp16, [256]> model_backbone_layers_1_1_1_ffn_layers_0_bias_to_fp16 = const()[name = tensor<string, []>("model_backbone_layers_1_1_1_ffn_layers_0_bias_to_fp16"), val = tensor<fp16, [256]>(BLOBFILE(path = tensor<string, []>("@model_path/weights/weight.bin"), offset = tensor<uint64, []>(805504)))];
            tensor<fp16, [1, 256, 64, 64]> x_65_cast_fp16 = conv(bias = model_backbone_layers_1_1_1_ffn_layers_0_bias_to_fp16, dilations = var_763, groups = var_45, pad = x_65_pad_1, pad_type = x_65_pad_type_1, strides = var_761, weight = model_backbone_layers_1_1_1_ffn_layers_0_weight_to_fp16, x = x_63_cast_fp16)[name = tensor<string, []>("x_65_cast_fp16")];
            tensor<int32, [2]> var_768 = const()[name = tensor<string, []>("op_768"), val = tensor<int32, [2]>([1, 1])];
            tensor<int32, [2]> var_770 = const()[name = tensor<string, []>("op_770"), val = tensor<int32, [2]>([1, 1])];
            tensor<string, []> input_67_pad_type_1 = const()[name = tensor<string, []>("input_67_pad_type_1"), val = tensor<string, []>("custom")];
            tensor<int32, [4]> input_67_pad_1 = const()[name = tensor<string, []>("input_67_pad_1"), val = tensor<int32, [4]>([1, 1, 1, 1])];
            tensor<fp16, [256, 1, 3, 3]> model_backbone_layers_1_1_1_ffn_layers_1_weight_to_fp16 = const()[name = tensor<string, []>("model_backbone_layers_1_1_1_ffn_layers_1_weight_to_fp16"), val = tensor<fp16, [256, 1, 3, 3]>(BLOBFILE(path = tensor<string, []>("@model_path/weights/weight.bin"), offset = tensor<uint64, []>(806080)))];
            tensor<fp16, [256]> model_backbone_layers_1_1_1_ffn_layers_1_bias_to_fp16 = const()[name = tensor<string, []>("model_backbone_layers_1_1_1_ffn_layers_1_bias_to_fp16"), val = tensor<fp16, [256]>(BLOBFILE(path = tensor<string, []>("@model_path/weights/weight.bin"), offset = tensor<uint64, []>(810752)))];
            tensor<fp16, [1, 256, 64, 64]> input_67_cast_fp16 = conv(bias = model_backbone_layers_1_1_1_ffn_layers_1_bias_to_fp16, dilations = var_770, groups = var_31, pad = input_67_pad_1, pad_type = input_67_pad_type_1, strides = var_768, weight = model_backbone_layers_1_1_1_ffn_layers_1_weight_to_fp16, x = x_65_cast_fp16)[name = tensor<string, []>("input_67_cast_fp16")];
            tensor<string, []> input_69_mode_1 = const()[name = tensor<string, []>("input_69_mode_1"), val = tensor<string, []>("EXACT")];
            tensor<fp16, [1, 256, 64, 64]> input_69_cast_fp16 = gelu(mode = input_69_mode_1, x = input_67_cast_fp16)[name = tensor<string, []>("input_69_cast_fp16")];
            tensor<int32, [2]> var_777 = const()[name = tensor<string, []>("op_777"), val = tensor<int32, [2]>([1, 1])];
            tensor<int32, [2]> var_779 = const()[name = tensor<string, []>("op_779"), val = tensor<int32, [2]>([1, 1])];
            tensor<string, []> input_71_pad_type_1 = const()[name = tensor<string, []>("input_71_pad_type_1"), val = tensor<string, []>("custom")];
            tensor<int32, [4]> input_71_pad_1 = const()[name = tensor<string, []>("input_71_pad_1"), val = tensor<int32, [4]>([0, 0, 0, 0])];
            tensor<fp16, [64, 256, 1, 1]> model_backbone_layers_1_1_1_ffn_layers_4_weight_to_fp16 = const()[name = tensor<string, []>("model_backbone_layers_1_1_1_ffn_layers_4_weight_to_fp16"), val = tensor<fp16, [64, 256, 1, 1]>(BLOBFILE(path = tensor<string, []>("@model_path/weights/weight.bin"), offset = tensor<uint64, []>(811328)))];
            tensor<fp16, [64]> model_backbone_layers_1_1_1_ffn_layers_4_bias_to_fp16 = const()[name = tensor<string, []>("model_backbone_layers_1_1_1_ffn_layers_4_bias_to_fp16"), val = tensor<fp16, [64]>(BLOBFILE(path = tensor<string, []>("@model_path/weights/weight.bin"), offset = tensor<uint64, []>(844160)))];
            tensor<fp16, [1, 64, 64, 64]> input_71_cast_fp16 = conv(bias = model_backbone_layers_1_1_1_ffn_layers_4_bias_to_fp16, dilations = var_779, groups = var_45, pad = input_71_pad_1, pad_type = input_71_pad_type_1, strides = var_777, weight = model_backbone_layers_1_1_1_ffn_layers_4_weight_to_fp16, x = input_69_cast_fp16)[name = tensor<string, []>("input_71_cast_fp16")];
            tensor<int32, [3]> concat_27 = const()[name = tensor<string, []>("concat_27"), val = tensor<int32, [3]>([1, 64, 4096])];
            tensor<fp16, [1, 64, 4096]> var_783_cast_fp16 = reshape(shape = concat_27, x = input_71_cast_fp16)[name = tensor<string, []>("op_783_cast_fp16")];
            tensor<int32, [3]> var_784_perm_1 = const()[name = tensor<string, []>("op_784_perm_1"), val = tensor<int32, [3]>([0, 2, 1])];
            tensor<fp16, [1, 4096, 64]> transpose_83 = transpose(perm = var_784_perm_1, x = var_783_cast_fp16)[name = tensor<string, []>("transpose_83")];
            tensor<fp16, [1, 4096, 64]> input_73_cast_fp16 = add(x = input_65_cast_fp16, y = transpose_83)[name = tensor<string, []>("input_73_cast_fp16")];
            tensor<int32, [1]> x_71_axes_1 = const()[name = tensor<string, []>("x_71_axes_1"), val = tensor<int32, [1]>([-1])];
            tensor<fp16, [64]> model_backbone_layers_1_2_weight_to_fp16 = const()[name = tensor<string, []>("model_backbone_layers_1_2_weight_to_fp16"), val = tensor<fp16, [64]>(BLOBFILE(path = tensor<string, []>("@model_path/weights/weight.bin"), offset = tensor<uint64, []>(844352)))];
            tensor<fp16, [64]> model_backbone_layers_1_2_bias_to_fp16 = const()[name = tensor<string, []>("model_backbone_layers_1_2_bias_to_fp16"), val = tensor<fp16, [64]>(BLOBFILE(path = tensor<string, []>("@model_path/weights/weight.bin"), offset = tensor<uint64, []>(844544)))];
            tensor<fp16, [1, 4096, 64]> x_71_cast_fp16 = layer_norm(axes = x_71_axes_1, beta = model_backbone_layers_1_2_bias_to_fp16, epsilon = var_50_to_fp16, gamma = model_backbone_layers_1_2_weight_to_fp16, x = input_73_cast_fp16)[name = tensor<string, []>("x_71_cast_fp16")];
            tensor<int32, [3]> var_793_perm_1 = const()[name = tensor<string, []>("op_793_perm_1"), val = tensor<int32, [3]>([0, 2, 1])];
            tensor<int32, [4]> var_794 = const()[name = tensor<string, []>("op_794"), val = tensor<int32, [4]>([1, 64, 64, 64])];
            tensor<fp16, [1, 64, 4096]> transpose_82 = transpose(perm = var_793_perm_1, x = x_71_cast_fp16)[name = tensor<string, []>("transpose_82")];
            tensor<fp16, [1, 64, 64, 64]> input_75_cast_fp16 = reshape(shape = var_794, x = transpose_82)[name = tensor<string, []>("input_75_cast_fp16")];
            tensor<int32, [2]> var_800 = const()[name = tensor<string, []>("op_800"), val = tensor<int32, [2]>([2, 2])];
            tensor<int32, [2]> var_802 = const()[name = tensor<string, []>("op_802"), val = tensor<int32, [2]>([1, 1])];
            tensor<string, []> x_73_pad_type_1 = const()[name = tensor<string, []>("x_73_pad_type_1"), val = tensor<string, []>("custom")];
            tensor<int32, [4]> x_73_pad_1 = const()[name = tensor<string, []>("x_73_pad_1"), val = tensor<int32, [4]>([1, 1, 1, 1])];
            tensor<fp16, [160, 64, 3, 3]> model_backbone_layers_2_0_projection_weight_to_fp16 = const()[name = tensor<string, []>("model_backbone_layers_2_0_projection_weight_to_fp16"), val = tensor<fp16, [160, 64, 3, 3]>(BLOBFILE(path = tensor<string, []>("@model_path/weights/weight.bin"), offset = tensor<uint64, []>(844736)))];
            tensor<fp16, [160]> model_backbone_layers_2_0_projection_bias_to_fp16 = const()[name = tensor<string, []>("model_backbone_layers_2_0_projection_bias_to_fp16"), val = tensor<fp16, [160]>(BLOBFILE(path = tensor<string, []>("@model_path/weights/weight.bin"), offset = tensor<uint64, []>(1029120)))];
            tensor<fp16, [1, 160, 32, 32]> x_73_cast_fp16 = conv(bias = model_backbone_layers_2_0_projection_bias_to_fp16, dilations = var_802, groups = var_45, pad = x_73_pad_1, pad_type = x_73_pad_type_1, strides = var_800, weight = model_backbone_layers_2_0_projection_weight_to_fp16, x = input_75_cast_fp16)[name = tensor<string, []>("x_73_cast_fp16")];
            tensor<int32, [3]> concat_28 = const()[name = tensor<string, []>("concat_28"), val = tensor<int32, [3]>([1, 160, 1024])];
            tensor<fp16, [1, 160, 1024]> var_809_cast_fp16 = reshape(shape = concat_28, x = x_73_cast_fp16)[name = tensor<string, []>("op_809_cast_fp16")];
            tensor<int32, [3]> input_77_perm_1 = const()[name = tensor<string, []>("input_77_perm_1"), val = tensor<int32, [3]>([0, 2, 1])];
            tensor<int32, [1]> input_79_axes_1 = const()[name = tensor<string, []>("input_79_axes_1"), val = tensor<int32, [1]>([-1])];
            tensor<fp16, [160]> model_backbone_layers_2_0_norm_weight_to_fp16 = const()[name = tensor<string, []>("model_backbone_layers_2_0_norm_weight_to_fp16"), val = tensor<fp16, [160]>(BLOBFILE(path = tensor<string, []>("@model_path/weights/weight.bin"), offset = tensor<uint64, []>(1029504)))];
            tensor<fp16, [160]> model_backbone_layers_2_0_norm_bias_to_fp16 = const()[name = tensor<string, []>("model_backbone_layers_2_0_norm_bias_to_fp16"), val = tensor<fp16, [160]>(BLOBFILE(path = tensor<string, []>("@model_path/weights/weight.bin"), offset = tensor<uint64, []>(1029888)))];
            tensor<fp16, [1, 1024, 160]> transpose_81 = transpose(perm = input_77_perm_1, x = var_809_cast_fp16)[name = tensor<string, []>("transpose_81")];
            tensor<fp16, [1, 1024, 160]> input_79_cast_fp16 = layer_norm(axes = input_79_axes_1, beta = model_backbone_layers_2_0_norm_bias_to_fp16, epsilon = var_50_to_fp16, gamma = model_backbone_layers_2_0_norm_weight_to_fp16, x = transpose_81)[name = tensor<string, []>("input_79_cast_fp16")];
            tensor<int32, [1]> x_75_axes_1 = const()[name = tensor<string, []>("x_75_axes_1"), val = tensor<int32, [1]>([-1])];
            tensor<fp16, [160]> model_backbone_layers_2_1_0_norm1_weight_to_fp16 = const()[name = tensor<string, []>("model_backbone_layers_2_1_0_norm1_weight_to_fp16"), val = tensor<fp16, [160]>(BLOBFILE(path = tensor<string, []>("@model_path/weights/weight.bin"), offset = tensor<uint64, []>(1030272)))];
            tensor<fp16, [160]> model_backbone_layers_2_1_0_norm1_bias_to_fp16 = const()[name = tensor<string, []>("model_backbone_layers_2_1_0_norm1_bias_to_fp16"), val = tensor<fp16, [160]>(BLOBFILE(path = tensor<string, []>("@model_path/weights/weight.bin"), offset = tensor<uint64, []>(1030656)))];
            tensor<fp16, [1, 1024, 160]> x_75_cast_fp16 = layer_norm(axes = x_75_axes_1, beta = model_backbone_layers_2_1_0_norm1_bias_to_fp16, epsilon = var_50_to_fp16, gamma = model_backbone_layers_2_1_0_norm1_weight_to_fp16, x = input_79_cast_fp16)[name = tensor<string, []>("x_75_cast_fp16")];
            tensor<int32, [3]> var_842_perm_1 = const()[name = tensor<string, []>("op_842_perm_1"), val = tensor<int32, [3]>([0, 2, 1])];
            tensor<int32, [4]> var_843 = const()[name = tensor<string, []>("op_843"), val = tensor<int32, [4]>([1, 160, 32, 32])];
            tensor<fp16, [1, 160, 1024]> transpose_80 = transpose(perm = var_842_perm_1, x = x_75_cast_fp16)[name = tensor<string, []>("transpose_80")];
            tensor<fp16, [1, 160, 32, 32]> x_77_cast_fp16 = reshape(shape = var_843, x = transpose_80)[name = tensor<string, []>("x_77_cast_fp16")];
            tensor<int32, [2]> var_847 = const()[name = tensor<string, []>("op_847"), val = tensor<int32, [2]>([2, 2])];
            tensor<int32, [2]> var_849 = const()[name = tensor<string, []>("op_849"), val = tensor<int32, [2]>([1, 1])];
            tensor<string, []> x_79_pad_type_1 = const()[name = tensor<string, []>("x_79_pad_type_1"), val = tensor<string, []>("custom")];
            tensor<int32, [4]> x_79_pad_1 = const()[name = tensor<string, []>("x_79_pad_1"), val = tensor<int32, [4]>([0, 0, 0, 0])];
            tensor<fp16, [160, 160, 2, 2]> model_backbone_layers_2_1_0_attn_sr_weight_to_fp16 = const()[name = tensor<string, []>("model_backbone_layers_2_1_0_attn_sr_weight_to_fp16"), val = tensor<fp16, [160, 160, 2, 2]>(BLOBFILE(path = tensor<string, []>("@model_path/weights/weight.bin"), offset = tensor<uint64, []>(1031040)))];
            tensor<fp16, [160]> model_backbone_layers_2_1_0_attn_sr_bias_to_fp16 = const()[name = tensor<string, []>("model_backbone_layers_2_1_0_attn_sr_bias_to_fp16"), val = tensor<fp16, [160]>(BLOBFILE(path = tensor<string, []>("@model_path/weights/weight.bin"), offset = tensor<uint64, []>(1235904)))];
            tensor<fp16, [1, 160, 16, 16]> x_79_cast_fp16 = conv(bias = model_backbone_layers_2_1_0_attn_sr_bias_to_fp16, dilations = var_849, groups = var_45, pad = x_79_pad_1, pad_type = x_79_pad_type_1, strides = var_847, weight = model_backbone_layers_2_1_0_attn_sr_weight_to_fp16, x = x_77_cast_fp16)[name = tensor<string, []>("x_79_cast_fp16")];
            tensor<int32, [3]> concat_29 = const()[name = tensor<string, []>("concat_29"), val = tensor<int32, [3]>([1, 160, 256])];
            tensor<fp16, [1, 160, 256]> var_852_cast_fp16 = reshape(shape = concat_29, x = x_79_cast_fp16)[name = tensor<string, []>("op_852_cast_fp16")];
            tensor<int32, [3]> var_853_perm_1 = const()[name = tensor<string, []>("op_853_perm_1"), val = tensor<int32, [3]>([0, 2, 1])];
            tensor<int32, [1]> x_kv_9_axes_1 = const()[name = tensor<string, []>("x_kv_9_axes_1"), val = tensor<int32, [1]>([-1])];
            tensor<fp16, [160]> model_backbone_layers_2_1_0_attn_norm_weight_to_fp16 = const()[name = tensor<string, []>("model_backbone_layers_2_1_0_attn_norm_weight_to_fp16"), val = tensor<fp16, [160]>(BLOBFILE(path = tensor<string, []>("@model_path/weights/weight.bin"), offset = tensor<uint64, []>(1236288)))];
            tensor<fp16, [160]> model_backbone_layers_2_1_0_attn_norm_bias_to_fp16 = const()[name = tensor<string, []>("model_backbone_layers_2_1_0_attn_norm_bias_to_fp16"), val = tensor<fp16, [160]>(BLOBFILE(path = tensor<string, []>("@model_path/weights/weight.bin"), offset = tensor<uint64, []>(1236672)))];
            tensor<fp16, [1, 256, 160]> transpose_79 = transpose(perm = var_853_perm_1, x = var_852_cast_fp16)[name = tensor<string, []>("transpose_79")];
            tensor<fp16, [1, 256, 160]> x_kv_9_cast_fp16 = layer_norm(axes = x_kv_9_axes_1, beta = model_backbone_layers_2_1_0_attn_norm_bias_to_fp16, epsilon = var_50_to_fp16, gamma = model_backbone_layers_2_1_0_attn_norm_weight_to_fp16, x = transpose_79)[name = tensor<string, []>("x_kv_9_cast_fp16")];
            tensor<int32, [3]> query_9_perm_1 = const()[name = tensor<string, []>("query_9_perm_1"), val = tensor<int32, [3]>([1, 0, 2])];
            tensor<int32, [3]> key_9_perm_1 = const()[name = tensor<string, []>("key_9_perm_1"), val = tensor<int32, [3]>([1, 0, 2])];
            tensor<fp16, [160, 160]> var_883_0_to_fp16 = const()[name = tensor<string, []>("op_883_0_to_fp16"), val = tensor<fp16, [160, 160]>(BLOBFILE(path = tensor<string, []>("@model_path/weights/weight.bin"), offset = tensor<uint64, []>(1237056)))];
            tensor<fp16, [160]> var_890_0_to_fp16 = const()[name = tensor<string, []>("op_890_0_to_fp16"), val = tensor<fp16, [160]>(BLOBFILE(path = tensor<string, []>("@model_path/weights/weight.bin"), offset = tensor<uint64, []>(1288320)))];
            tensor<fp16, [1024, 1, 160]> transpose_78 = transpose(perm = query_9_perm_1, x = x_75_cast_fp16)[name = tensor<string, []>("transpose_78")];
            tensor<fp16, [1024, 1, 160]> linear_36_cast_fp16 = linear(bias = var_890_0_to_fp16, weight = var_883_0_to_fp16, x = transpose_78)[name = tensor<string, []>("linear_36_cast_fp16")];
            tensor<fp16, [320, 160]> var_883_1_to_fp16 = const()[name = tensor<string, []>("op_883_1_to_fp16"), val = tensor<fp16, [320, 160]>(BLOBFILE(path = tensor<string, []>("@model_path/weights/weight.bin"), offset = tensor<uint64, []>(1288704)))];
            tensor<fp16, [320]> var_890_1_to_fp16 = const()[name = tensor<string, []>("op_890_1_to_fp16"), val = tensor<fp16, [320]>(BLOBFILE(path = tensor<string, []>("@model_path/weights/weight.bin"), offset = tensor<uint64, []>(1391168)))];
            tensor<fp16, [256, 1, 160]> transpose_77 = transpose(perm = key_9_perm_1, x = x_kv_9_cast_fp16)[name = tensor<string, []>("transpose_77")];
            tensor<fp16, [256, 1, 320]> linear_37_cast_fp16 = linear(bias = var_890_1_to_fp16, weight = var_883_1_to_fp16, x = transpose_77)[name = tensor<string, []>("linear_37_cast_fp16")];
            tensor<int32, [2]> var_895_split_sizes_1 = const()[name = tensor<string, []>("op_895_split_sizes_1"), val = tensor<int32, [2]>([160, 160])];
            tensor<int32, []> var_895_axis_1 = const()[name = tensor<string, []>("op_895_axis_1"), val = tensor<int32, []>(-1)];
            tensor<fp16, [256, 1, 160]> var_895_cast_fp16_0, tensor<fp16, [256, 1, 160]> var_895_cast_fp16_1 = split(axis = var_895_axis_1, split_sizes = var_895_split_sizes_1, x = linear_37_cast_fp16)[name = tensor<string, []>("op_895_cast_fp16")];
            tensor<int32, [3]> var_901 = const()[name = tensor<string, []>("op_901"), val = tensor<int32, [3]>([1024, 5, 32])];
            tensor<fp16, [1024, 5, 32]> var_902_cast_fp16 = reshape(shape = var_901, x = linear_36_cast_fp16)[name = tensor<string, []>("op_902_cast_fp16")];
            tensor<int32, [3]> var_909 = const()[name = tensor<string, []>("op_909"), val = tensor<int32, [3]>([256, 5, 32])];
            tensor<fp16, [256, 5, 32]> var_910_cast_fp16 = reshape(shape = var_909, x = var_895_cast_fp16_0)[name = tensor<string, []>("op_910_cast_fp16")];
            tensor<int32, [3]> var_917 = const()[name = tensor<string, []>("op_917"), val = tensor<int32, [3]>([256, 5, 32])];
            tensor<fp16, [256, 5, 32]> var_918_cast_fp16 = reshape(shape = var_917, x = var_895_cast_fp16_1)[name = tensor<string, []>("op_918_cast_fp16")];
            tensor<int32, [3]> v_19_perm_1 = const()[name = tensor<string, []>("v_19_perm_1"), val = tensor<int32, [3]>([1, 0, 2])];
            tensor<fp16, []> _inversed_q_scaled_9_y_0_to_fp16 = const()[name = tensor<string, []>("_inversed_q_scaled_9_y_0_to_fp16"), val = tensor<fp16, []>(0x1.6ap-3)];
            tensor<fp16, [1024, 5, 32]> _inversed_q_scaled_9_cast_fp16 = mul(x = var_902_cast_fp16, y = _inversed_q_scaled_9_y_0_to_fp16)[name = tensor<string, []>("_inversed_q_scaled_9_cast_fp16")];
            tensor<bool, []> input_83_transpose_x_1 = const()[name = tensor<string, []>("input_83_transpose_x_1"), val = tensor<bool, []>(false)];
            tensor<bool, []> input_83_transpose_y_1 = const()[name = tensor<string, []>("input_83_transpose_y_1"), val = tensor<bool, []>(false)];
            tensor<int32, [3]> transpose_32_perm_0 = const()[name = tensor<string, []>("transpose_32_perm_0"), val = tensor<int32, [3]>([1, 0, 2])];
            tensor<int32, [3]> transpose_33_perm_0 = const()[name = tensor<string, []>("transpose_33_perm_0"), val = tensor<int32, [3]>([1, 2, 0])];
            tensor<fp16, [5, 32, 256]> transpose_74 = transpose(perm = transpose_33_perm_0, x = var_910_cast_fp16)[name = tensor<string, []>("transpose_74")];
            tensor<fp16, [5, 1024, 32]> transpose_75 = transpose(perm = transpose_32_perm_0, x = _inversed_q_scaled_9_cast_fp16)[name = tensor<string, []>("transpose_75")];
            tensor<fp16, [5, 1024, 256]> input_83_cast_fp16 = matmul(transpose_x = input_83_transpose_x_1, transpose_y = input_83_transpose_y_1, x = transpose_75, y = transpose_74)[name = tensor<string, []>("input_83_cast_fp16")];
            tensor<fp16, [5, 1024, 256]> attn_output_weights_17_cast_fp16 = softmax(axis = var_49, x = input_83_cast_fp16)[name = tensor<string, []>("attn_output_weights_17_cast_fp16")];
            tensor<bool, []> attn_output_25_transpose_x_1 = const()[name = tensor<string, []>("attn_output_25_transpose_x_1"), val = tensor<bool, []>(false)];
            tensor<bool, []> attn_output_25_transpose_y_1 = const()[name = tensor<string, []>("attn_output_25_transpose_y_1"), val = tensor<bool, []>(false)];
            tensor<fp16, [5, 256, 32]> transpose_76 = transpose(perm = v_19_perm_1, x = var_918_cast_fp16)[name = tensor<string, []>("transpose_76")];
            tensor<fp16, [5, 1024, 32]> attn_output_25_cast_fp16 = matmul(transpose_x = attn_output_25_transpose_x_1, transpose_y = attn_output_25_transpose_y_1, x = attn_output_weights_17_cast_fp16, y = transpose_76)[name = tensor<string, []>("attn_output_25_cast_fp16")];
            tensor<int32, [3]> var_926_perm_1 = const()[name = tensor<string, []>("op_926_perm_1"), val = tensor<int32, [3]>([1, 0, 2])];
            tensor<int32, [2]> var_930 = const()[name = tensor<string, []>("op_930"), val = tensor<int32, [2]>([1024, 160])];
            tensor<fp16, [1024, 5, 32]> transpose_73 = transpose(perm = var_926_perm_1, x = attn_output_25_cast_fp16)[name = tensor<string, []>("transpose_73")];
            tensor<fp16, [1024, 160]> attn_output_27_cast_fp16 = reshape(shape = var_930, x = transpose_73)[name = tensor<string, []>("attn_output_27_cast_fp16")];
            tensor<fp16, [160, 160]> model_backbone_layers_2_1_0_attn_attn_out_proj_weight_to_fp16 = const()[name = tensor<string, []>("model_backbone_layers_2_1_0_attn_attn_out_proj_weight_to_fp16"), val = tensor<fp16, [160, 160]>(BLOBFILE(path = tensor<string, []>("@model_path/weights/weight.bin"), offset = tensor<uint64, []>(1391872)))];
            tensor<fp16, [160]> model_backbone_layers_2_1_0_attn_attn_out_proj_bias_to_fp16 = const()[name = tensor<string, []>("model_backbone_layers_2_1_0_attn_attn_out_proj_bias_to_fp16"), val = tensor<fp16, [160]>(BLOBFILE(path = tensor<string, []>("@model_path/weights/weight.bin"), offset = tensor<uint64, []>(1443136)))];
            tensor<fp16, [1024, 160]> linear_38_cast_fp16 = linear(bias = model_backbone_layers_2_1_0_attn_attn_out_proj_bias_to_fp16, weight = model_backbone_layers_2_1_0_attn_attn_out_proj_weight_to_fp16, x = attn_output_27_cast_fp16)[name = tensor<string, []>("linear_38_cast_fp16")];
            tensor<int32, [3]> var_934 = const()[name = tensor<string, []>("op_934"), val = tensor<int32, [3]>([1024, 1, 160])];
            tensor<fp16, [1024, 1, 160]> out_25_cast_fp16 = reshape(shape = var_934, x = linear_38_cast_fp16)[name = tensor<string, []>("out_25_cast_fp16")];
            tensor<int32, [3]> input_85_perm_1 = const()[name = tensor<string, []>("input_85_perm_1"), val = tensor<int32, [3]>([1, 0, 2])];
            tensor<fp16, [1, 1024, 160]> transpose_72 = transpose(perm = input_85_perm_1, x = out_25_cast_fp16)[name = tensor<string, []>("transpose_72")];
            tensor<fp16, [1, 1024, 160]> input_87_cast_fp16 = add(x = input_79_cast_fp16, y = transpose_72)[name = tensor<string, []>("input_87_cast_fp16")];
            tensor<int32, [1]> x_81_axes_1 = const()[name = tensor<string, []>("x_81_axes_1"), val = tensor<int32, [1]>([-1])];
            tensor<fp16, [160]> model_backbone_layers_2_1_0_norm2_weight_to_fp16 = const()[name = tensor<string, []>("model_backbone_layers_2_1_0_norm2_weight_to_fp16"), val = tensor<fp16, [160]>(BLOBFILE(path = tensor<string, []>("@model_path/weights/weight.bin"), offset = tensor<uint64, []>(1443520)))];
            tensor<fp16, [160]> model_backbone_layers_2_1_0_norm2_bias_to_fp16 = const()[name = tensor<string, []>("model_backbone_layers_2_1_0_norm2_bias_to_fp16"), val = tensor<fp16, [160]>(BLOBFILE(path = tensor<string, []>("@model_path/weights/weight.bin"), offset = tensor<uint64, []>(1443904)))];
            tensor<fp16, [1, 1024, 160]> x_81_cast_fp16 = layer_norm(axes = x_81_axes_1, beta = model_backbone_layers_2_1_0_norm2_bias_to_fp16, epsilon = var_50_to_fp16, gamma = model_backbone_layers_2_1_0_norm2_weight_to_fp16, x = input_87_cast_fp16)[name = tensor<string, []>("x_81_cast_fp16")];
            tensor<int32, [3]> var_946_perm_1 = const()[name = tensor<string, []>("op_946_perm_1"), val = tensor<int32, [3]>([0, 2, 1])];
            tensor<int32, [4]> var_947 = const()[name = tensor<string, []>("op_947"), val = tensor<int32, [4]>([1, 160, 32, 32])];
            tensor<fp16, [1, 160, 1024]> transpose_71 = transpose(perm = var_946_perm_1, x = x_81_cast_fp16)[name = tensor<string, []>("transpose_71")];
            tensor<fp16, [1, 160, 32, 32]> x_83_cast_fp16 = reshape(shape = var_947, x = transpose_71)[name = tensor<string, []>("x_83_cast_fp16")];
            tensor<int32, [2]> var_954 = const()[name = tensor<string, []>("op_954"), val = tensor<int32, [2]>([1, 1])];
            tensor<int32, [2]> var_956 = const()[name = tensor<string, []>("op_956"), val = tensor<int32, [2]>([1, 1])];
            tensor<string, []> x_85_pad_type_1 = const()[name = tensor<string, []>("x_85_pad_type_1"), val = tensor<string, []>("custom")];
            tensor<int32, [4]> x_85_pad_1 = const()[name = tensor<string, []>("x_85_pad_1"), val = tensor<int32, [4]>([0, 0, 0, 0])];
            tensor<fp16, [640, 160, 1, 1]> model_backbone_layers_2_1_0_ffn_layers_0_weight_to_fp16 = const()[name = tensor<string, []>("model_backbone_layers_2_1_0_ffn_layers_0_weight_to_fp16"), val = tensor<fp16, [640, 160, 1, 1]>(BLOBFILE(path = tensor<string, []>("@model_path/weights/weight.bin"), offset = tensor<uint64, []>(1444288)))];
            tensor<fp16, [640]> model_backbone_layers_2_1_0_ffn_layers_0_bias_to_fp16 = const()[name = tensor<string, []>("model_backbone_layers_2_1_0_ffn_layers_0_bias_to_fp16"), val = tensor<fp16, [640]>(BLOBFILE(path = tensor<string, []>("@model_path/weights/weight.bin"), offset = tensor<uint64, []>(1649152)))];
            tensor<fp16, [1, 640, 32, 32]> x_85_cast_fp16 = conv(bias = model_backbone_layers_2_1_0_ffn_layers_0_bias_to_fp16, dilations = var_956, groups = var_45, pad = x_85_pad_1, pad_type = x_85_pad_type_1, strides = var_954, weight = model_backbone_layers_2_1_0_ffn_layers_0_weight_to_fp16, x = x_83_cast_fp16)[name = tensor<string, []>("x_85_cast_fp16")];
            tensor<int32, [2]> var_961 = const()[name = tensor<string, []>("op_961"), val = tensor<int32, [2]>([1, 1])];
            tensor<int32, [2]> var_963 = const()[name = tensor<string, []>("op_963"), val = tensor<int32, [2]>([1, 1])];
            tensor<string, []> input_89_pad_type_1 = const()[name = tensor<string, []>("input_89_pad_type_1"), val = tensor<string, []>("custom")];
            tensor<int32, [4]> input_89_pad_1 = const()[name = tensor<string, []>("input_89_pad_1"), val = tensor<int32, [4]>([1, 1, 1, 1])];
            tensor<fp16, [640, 1, 3, 3]> model_backbone_layers_2_1_0_ffn_layers_1_weight_to_fp16 = const()[name = tensor<string, []>("model_backbone_layers_2_1_0_ffn_layers_1_weight_to_fp16"), val = tensor<fp16, [640, 1, 3, 3]>(BLOBFILE(path = tensor<string, []>("@model_path/weights/weight.bin"), offset = tensor<uint64, []>(1650496)))];
            tensor<fp16, [640]> model_backbone_layers_2_1_0_ffn_layers_1_bias_to_fp16 = const()[name = tensor<string, []>("model_backbone_layers_2_1_0_ffn_layers_1_bias_to_fp16"), val = tensor<fp16, [640]>(BLOBFILE(path = tensor<string, []>("@model_path/weights/weight.bin"), offset = tensor<uint64, []>(1662080)))];
            tensor<fp16, [1, 640, 32, 32]> input_89_cast_fp16 = conv(bias = model_backbone_layers_2_1_0_ffn_layers_1_bias_to_fp16, dilations = var_963, groups = var_29, pad = input_89_pad_1, pad_type = input_89_pad_type_1, strides = var_961, weight = model_backbone_layers_2_1_0_ffn_layers_1_weight_to_fp16, x = x_85_cast_fp16)[name = tensor<string, []>("input_89_cast_fp16")];
            tensor<string, []> input_91_mode_1 = const()[name = tensor<string, []>("input_91_mode_1"), val = tensor<string, []>("EXACT")];
            tensor<fp16, [1, 640, 32, 32]> input_91_cast_fp16 = gelu(mode = input_91_mode_1, x = input_89_cast_fp16)[name = tensor<string, []>("input_91_cast_fp16")];
            tensor<int32, [2]> var_970 = const()[name = tensor<string, []>("op_970"), val = tensor<int32, [2]>([1, 1])];
            tensor<int32, [2]> var_972 = const()[name = tensor<string, []>("op_972"), val = tensor<int32, [2]>([1, 1])];
            tensor<string, []> input_93_pad_type_1 = const()[name = tensor<string, []>("input_93_pad_type_1"), val = tensor<string, []>("custom")];
            tensor<int32, [4]> input_93_pad_1 = const()[name = tensor<string, []>("input_93_pad_1"), val = tensor<int32, [4]>([0, 0, 0, 0])];
            tensor<fp16, [160, 640, 1, 1]> model_backbone_layers_2_1_0_ffn_layers_4_weight_to_fp16 = const()[name = tensor<string, []>("model_backbone_layers_2_1_0_ffn_layers_4_weight_to_fp16"), val = tensor<fp16, [160, 640, 1, 1]>(BLOBFILE(path = tensor<string, []>("@model_path/weights/weight.bin"), offset = tensor<uint64, []>(1663424)))];
            tensor<fp16, [160]> model_backbone_layers_2_1_0_ffn_layers_4_bias_to_fp16 = const()[name = tensor<string, []>("model_backbone_layers_2_1_0_ffn_layers_4_bias_to_fp16"), val = tensor<fp16, [160]>(BLOBFILE(path = tensor<string, []>("@model_path/weights/weight.bin"), offset = tensor<uint64, []>(1868288)))];
            tensor<fp16, [1, 160, 32, 32]> input_93_cast_fp16 = conv(bias = model_backbone_layers_2_1_0_ffn_layers_4_bias_to_fp16, dilations = var_972, groups = var_45, pad = input_93_pad_1, pad_type = input_93_pad_type_1, strides = var_970, weight = model_backbone_layers_2_1_0_ffn_layers_4_weight_to_fp16, x = input_91_cast_fp16)[name = tensor<string, []>("input_93_cast_fp16")];
            tensor<int32, [3]> concat_30 = const()[name = tensor<string, []>("concat_30"), val = tensor<int32, [3]>([1, 160, 1024])];
            tensor<fp16, [1, 160, 1024]> var_976_cast_fp16 = reshape(shape = concat_30, x = input_93_cast_fp16)[name = tensor<string, []>("op_976_cast_fp16")];
            tensor<int32, [3]> var_977_perm_1 = const()[name = tensor<string, []>("op_977_perm_1"), val = tensor<int32, [3]>([0, 2, 1])];
            tensor<fp16, [1, 1024, 160]> transpose_70 = transpose(perm = var_977_perm_1, x = var_976_cast_fp16)[name = tensor<string, []>("transpose_70")];
            tensor<fp16, [1, 1024, 160]> input_95_cast_fp16 = add(x = input_87_cast_fp16, y = transpose_70)[name = tensor<string, []>("input_95_cast_fp16")];
            tensor<int32, [1]> x_91_axes_1 = const()[name = tensor<string, []>("x_91_axes_1"), val = tensor<int32, [1]>([-1])];
            tensor<fp16, [160]> model_backbone_layers_2_1_1_norm1_weight_to_fp16 = const()[name = tensor<string, []>("model_backbone_layers_2_1_1_norm1_weight_to_fp16"), val = tensor<fp16, [160]>(BLOBFILE(path = tensor<string, []>("@model_path/weights/weight.bin"), offset = tensor<uint64, []>(1868672)))];
            tensor<fp16, [160]> model_backbone_layers_2_1_1_norm1_bias_to_fp16 = const()[name = tensor<string, []>("model_backbone_layers_2_1_1_norm1_bias_to_fp16"), val = tensor<fp16, [160]>(BLOBFILE(path = tensor<string, []>("@model_path/weights/weight.bin"), offset = tensor<uint64, []>(1869056)))];
            tensor<fp16, [1, 1024, 160]> x_91_cast_fp16 = layer_norm(axes = x_91_axes_1, beta = model_backbone_layers_2_1_1_norm1_bias_to_fp16, epsilon = var_50_to_fp16, gamma = model_backbone_layers_2_1_1_norm1_weight_to_fp16, x = input_95_cast_fp16)[name = tensor<string, []>("x_91_cast_fp16")];
            tensor<int32, [3]> var_993_perm_1 = const()[name = tensor<string, []>("op_993_perm_1"), val = tensor<int32, [3]>([0, 2, 1])];
            tensor<int32, [4]> var_994 = const()[name = tensor<string, []>("op_994"), val = tensor<int32, [4]>([1, 160, 32, 32])];
            tensor<fp16, [1, 160, 1024]> transpose_69 = transpose(perm = var_993_perm_1, x = x_91_cast_fp16)[name = tensor<string, []>("transpose_69")];
            tensor<fp16, [1, 160, 32, 32]> x_93_cast_fp16 = reshape(shape = var_994, x = transpose_69)[name = tensor<string, []>("x_93_cast_fp16")];
            tensor<int32, [2]> var_998 = const()[name = tensor<string, []>("op_998"), val = tensor<int32, [2]>([2, 2])];
            tensor<int32, [2]> var_1000 = const()[name = tensor<string, []>("op_1000"), val = tensor<int32, [2]>([1, 1])];
            tensor<string, []> x_95_pad_type_1 = const()[name = tensor<string, []>("x_95_pad_type_1"), val = tensor<string, []>("custom")];
            tensor<int32, [4]> x_95_pad_1 = const()[name = tensor<string, []>("x_95_pad_1"), val = tensor<int32, [4]>([0, 0, 0, 0])];
            tensor<fp16, [160, 160, 2, 2]> model_backbone_layers_2_1_1_attn_sr_weight_to_fp16 = const()[name = tensor<string, []>("model_backbone_layers_2_1_1_attn_sr_weight_to_fp16"), val = tensor<fp16, [160, 160, 2, 2]>(BLOBFILE(path = tensor<string, []>("@model_path/weights/weight.bin"), offset = tensor<uint64, []>(1869440)))];
            tensor<fp16, [160]> model_backbone_layers_2_1_1_attn_sr_bias_to_fp16 = const()[name = tensor<string, []>("model_backbone_layers_2_1_1_attn_sr_bias_to_fp16"), val = tensor<fp16, [160]>(BLOBFILE(path = tensor<string, []>("@model_path/weights/weight.bin"), offset = tensor<uint64, []>(2074304)))];
            tensor<fp16, [1, 160, 16, 16]> x_95_cast_fp16 = conv(bias = model_backbone_layers_2_1_1_attn_sr_bias_to_fp16, dilations = var_1000, groups = var_45, pad = x_95_pad_1, pad_type = x_95_pad_type_1, strides = var_998, weight = model_backbone_layers_2_1_1_attn_sr_weight_to_fp16, x = x_93_cast_fp16)[name = tensor<string, []>("x_95_cast_fp16")];
            tensor<int32, [3]> concat_31 = const()[name = tensor<string, []>("concat_31"), val = tensor<int32, [3]>([1, 160, 256])];
            tensor<fp16, [1, 160, 256]> var_1003_cast_fp16 = reshape(shape = concat_31, x = x_95_cast_fp16)[name = tensor<string, []>("op_1003_cast_fp16")];
            tensor<int32, [3]> var_1004_perm_1 = const()[name = tensor<string, []>("op_1004_perm_1"), val = tensor<int32, [3]>([0, 2, 1])];
            tensor<int32, [1]> x_kv_axes_1 = const()[name = tensor<string, []>("x_kv_axes_1"), val = tensor<int32, [1]>([-1])];
            tensor<fp16, [160]> model_backbone_layers_2_1_1_attn_norm_weight_to_fp16 = const()[name = tensor<string, []>("model_backbone_layers_2_1_1_attn_norm_weight_to_fp16"), val = tensor<fp16, [160]>(BLOBFILE(path = tensor<string, []>("@model_path/weights/weight.bin"), offset = tensor<uint64, []>(2074688)))];
            tensor<fp16, [160]> model_backbone_layers_2_1_1_attn_norm_bias_to_fp16 = const()[name = tensor<string, []>("model_backbone_layers_2_1_1_attn_norm_bias_to_fp16"), val = tensor<fp16, [160]>(BLOBFILE(path = tensor<string, []>("@model_path/weights/weight.bin"), offset = tensor<uint64, []>(2075072)))];
            tensor<fp16, [1, 256, 160]> transpose_68 = transpose(perm = var_1004_perm_1, x = var_1003_cast_fp16)[name = tensor<string, []>("transpose_68")];
            tensor<fp16, [1, 256, 160]> x_kv_cast_fp16 = layer_norm(axes = x_kv_axes_1, beta = model_backbone_layers_2_1_1_attn_norm_bias_to_fp16, epsilon = var_50_to_fp16, gamma = model_backbone_layers_2_1_1_attn_norm_weight_to_fp16, x = transpose_68)[name = tensor<string, []>("x_kv_cast_fp16")];
            tensor<int32, [3]> query_11_perm_1 = const()[name = tensor<string, []>("query_11_perm_1"), val = tensor<int32, [3]>([1, 0, 2])];
            tensor<int32, [3]> key_11_perm_1 = const()[name = tensor<string, []>("key_11_perm_1"), val = tensor<int32, [3]>([1, 0, 2])];
            tensor<fp16, [160, 160]> var_1034_0_to_fp16 = const()[name = tensor<string, []>("op_1034_0_to_fp16"), val = tensor<fp16, [160, 160]>(BLOBFILE(path = tensor<string, []>("@model_path/weights/weight.bin"), offset = tensor<uint64, []>(2075456)))];
            tensor<fp16, [160]> var_1041_0_to_fp16 = const()[name = tensor<string, []>("op_1041_0_to_fp16"), val = tensor<fp16, [160]>(BLOBFILE(path = tensor<string, []>("@model_path/weights/weight.bin"), offset = tensor<uint64, []>(2126720)))];
            tensor<fp16, [1024, 1, 160]> transpose_67 = transpose(perm = query_11_perm_1, x = x_91_cast_fp16)[name = tensor<string, []>("transpose_67")];
            tensor<fp16, [1024, 1, 160]> linear_39_cast_fp16 = linear(bias = var_1041_0_to_fp16, weight = var_1034_0_to_fp16, x = transpose_67)[name = tensor<string, []>("linear_39_cast_fp16")];
            tensor<fp16, [320, 160]> var_1034_1_to_fp16 = const()[name = tensor<string, []>("op_1034_1_to_fp16"), val = tensor<fp16, [320, 160]>(BLOBFILE(path = tensor<string, []>("@model_path/weights/weight.bin"), offset = tensor<uint64, []>(2127104)))];
            tensor<fp16, [320]> var_1041_1_to_fp16 = const()[name = tensor<string, []>("op_1041_1_to_fp16"), val = tensor<fp16, [320]>(BLOBFILE(path = tensor<string, []>("@model_path/weights/weight.bin"), offset = tensor<uint64, []>(2229568)))];
            tensor<fp16, [256, 1, 160]> transpose_66 = transpose(perm = key_11_perm_1, x = x_kv_cast_fp16)[name = tensor<string, []>("transpose_66")];
            tensor<fp16, [256, 1, 320]> linear_40_cast_fp16 = linear(bias = var_1041_1_to_fp16, weight = var_1034_1_to_fp16, x = transpose_66)[name = tensor<string, []>("linear_40_cast_fp16")];
            tensor<int32, [2]> var_1046_split_sizes_1 = const()[name = tensor<string, []>("op_1046_split_sizes_1"), val = tensor<int32, [2]>([160, 160])];
            tensor<int32, []> var_1046_axis_1 = const()[name = tensor<string, []>("op_1046_axis_1"), val = tensor<int32, []>(-1)];
            tensor<fp16, [256, 1, 160]> var_1046_cast_fp16_0, tensor<fp16, [256, 1, 160]> var_1046_cast_fp16_1 = split(axis = var_1046_axis_1, split_sizes = var_1046_split_sizes_1, x = linear_40_cast_fp16)[name = tensor<string, []>("op_1046_cast_fp16")];
            tensor<int32, [3]> var_1052 = const()[name = tensor<string, []>("op_1052"), val = tensor<int32, [3]>([1024, 5, 32])];
            tensor<fp16, [1024, 5, 32]> var_1053_cast_fp16 = reshape(shape = var_1052, x = linear_39_cast_fp16)[name = tensor<string, []>("op_1053_cast_fp16")];
            tensor<int32, [3]> var_1060 = const()[name = tensor<string, []>("op_1060"), val = tensor<int32, [3]>([256, 5, 32])];
            tensor<fp16, [256, 5, 32]> var_1061_cast_fp16 = reshape(shape = var_1060, x = var_1046_cast_fp16_0)[name = tensor<string, []>("op_1061_cast_fp16")];
            tensor<int32, [3]> var_1068 = const()[name = tensor<string, []>("op_1068"), val = tensor<int32, [3]>([256, 5, 32])];
            tensor<fp16, [256, 5, 32]> var_1069_cast_fp16 = reshape(shape = var_1068, x = var_1046_cast_fp16_1)[name = tensor<string, []>("op_1069_cast_fp16")];
            tensor<int32, [3]> v_23_perm_1 = const()[name = tensor<string, []>("v_23_perm_1"), val = tensor<int32, [3]>([1, 0, 2])];
            tensor<fp16, []> _inversed_q_scaled_11_y_0_to_fp16 = const()[name = tensor<string, []>("_inversed_q_scaled_11_y_0_to_fp16"), val = tensor<fp16, []>(0x1.6ap-3)];
            tensor<fp16, [1024, 5, 32]> _inversed_q_scaled_11_cast_fp16 = mul(x = var_1053_cast_fp16, y = _inversed_q_scaled_11_y_0_to_fp16)[name = tensor<string, []>("_inversed_q_scaled_11_cast_fp16")];
            tensor<bool, []> input_99_transpose_x_1 = const()[name = tensor<string, []>("input_99_transpose_x_1"), val = tensor<bool, []>(false)];
            tensor<bool, []> input_99_transpose_y_1 = const()[name = tensor<string, []>("input_99_transpose_y_1"), val = tensor<bool, []>(false)];
            tensor<int32, [3]> transpose_34_perm_0 = const()[name = tensor<string, []>("transpose_34_perm_0"), val = tensor<int32, [3]>([1, 0, 2])];
            tensor<int32, [3]> transpose_35_perm_0 = const()[name = tensor<string, []>("transpose_35_perm_0"), val = tensor<int32, [3]>([1, 2, 0])];
            tensor<fp16, [5, 32, 256]> transpose_63 = transpose(perm = transpose_35_perm_0, x = var_1061_cast_fp16)[name = tensor<string, []>("transpose_63")];
            tensor<fp16, [5, 1024, 32]> transpose_64 = transpose(perm = transpose_34_perm_0, x = _inversed_q_scaled_11_cast_fp16)[name = tensor<string, []>("transpose_64")];
            tensor<fp16, [5, 1024, 256]> input_99_cast_fp16 = matmul(transpose_x = input_99_transpose_x_1, transpose_y = input_99_transpose_y_1, x = transpose_64, y = transpose_63)[name = tensor<string, []>("input_99_cast_fp16")];
            tensor<fp16, [5, 1024, 256]> attn_output_weights_21_cast_fp16 = softmax(axis = var_49, x = input_99_cast_fp16)[name = tensor<string, []>("attn_output_weights_21_cast_fp16")];
            tensor<bool, []> attn_output_31_transpose_x_1 = const()[name = tensor<string, []>("attn_output_31_transpose_x_1"), val = tensor<bool, []>(false)];
            tensor<bool, []> attn_output_31_transpose_y_1 = const()[name = tensor<string, []>("attn_output_31_transpose_y_1"), val = tensor<bool, []>(false)];
            tensor<fp16, [5, 256, 32]> transpose_65 = transpose(perm = v_23_perm_1, x = var_1069_cast_fp16)[name = tensor<string, []>("transpose_65")];
            tensor<fp16, [5, 1024, 32]> attn_output_31_cast_fp16 = matmul(transpose_x = attn_output_31_transpose_x_1, transpose_y = attn_output_31_transpose_y_1, x = attn_output_weights_21_cast_fp16, y = transpose_65)[name = tensor<string, []>("attn_output_31_cast_fp16")];
            tensor<int32, [3]> var_1077_perm_1 = const()[name = tensor<string, []>("op_1077_perm_1"), val = tensor<int32, [3]>([1, 0, 2])];
            tensor<int32, [2]> var_1081 = const()[name = tensor<string, []>("op_1081"), val = tensor<int32, [2]>([1024, 160])];
            tensor<fp16, [1024, 5, 32]> transpose_62 = transpose(perm = var_1077_perm_1, x = attn_output_31_cast_fp16)[name = tensor<string, []>("transpose_62")];
            tensor<fp16, [1024, 160]> attn_output_33_cast_fp16 = reshape(shape = var_1081, x = transpose_62)[name = tensor<string, []>("attn_output_33_cast_fp16")];
            tensor<fp16, [160, 160]> model_backbone_layers_2_1_1_attn_attn_out_proj_weight_to_fp16 = const()[name = tensor<string, []>("model_backbone_layers_2_1_1_attn_attn_out_proj_weight_to_fp16"), val = tensor<fp16, [160, 160]>(BLOBFILE(path = tensor<string, []>("@model_path/weights/weight.bin"), offset = tensor<uint64, []>(2230272)))];
            tensor<fp16, [160]> model_backbone_layers_2_1_1_attn_attn_out_proj_bias_to_fp16 = const()[name = tensor<string, []>("model_backbone_layers_2_1_1_attn_attn_out_proj_bias_to_fp16"), val = tensor<fp16, [160]>(BLOBFILE(path = tensor<string, []>("@model_path/weights/weight.bin"), offset = tensor<uint64, []>(2281536)))];
            tensor<fp16, [1024, 160]> linear_41_cast_fp16 = linear(bias = model_backbone_layers_2_1_1_attn_attn_out_proj_bias_to_fp16, weight = model_backbone_layers_2_1_1_attn_attn_out_proj_weight_to_fp16, x = attn_output_33_cast_fp16)[name = tensor<string, []>("linear_41_cast_fp16")];
            tensor<int32, [3]> var_1085 = const()[name = tensor<string, []>("op_1085"), val = tensor<int32, [3]>([1024, 1, 160])];
            tensor<fp16, [1024, 1, 160]> out_31_cast_fp16 = reshape(shape = var_1085, x = linear_41_cast_fp16)[name = tensor<string, []>("out_31_cast_fp16")];
            tensor<int32, [3]> input_101_perm_1 = const()[name = tensor<string, []>("input_101_perm_1"), val = tensor<int32, [3]>([1, 0, 2])];
            tensor<fp16, [1, 1024, 160]> transpose_61 = transpose(perm = input_101_perm_1, x = out_31_cast_fp16)[name = tensor<string, []>("transpose_61")];
            tensor<fp16, [1, 1024, 160]> input_103_cast_fp16 = add(x = input_95_cast_fp16, y = transpose_61)[name = tensor<string, []>("input_103_cast_fp16")];
            tensor<int32, [1]> x_97_axes_1 = const()[name = tensor<string, []>("x_97_axes_1"), val = tensor<int32, [1]>([-1])];
            tensor<fp16, [160]> model_backbone_layers_2_1_1_norm2_weight_to_fp16 = const()[name = tensor<string, []>("model_backbone_layers_2_1_1_norm2_weight_to_fp16"), val = tensor<fp16, [160]>(BLOBFILE(path = tensor<string, []>("@model_path/weights/weight.bin"), offset = tensor<uint64, []>(2281920)))];
            tensor<fp16, [160]> model_backbone_layers_2_1_1_norm2_bias_to_fp16 = const()[name = tensor<string, []>("model_backbone_layers_2_1_1_norm2_bias_to_fp16"), val = tensor<fp16, [160]>(BLOBFILE(path = tensor<string, []>("@model_path/weights/weight.bin"), offset = tensor<uint64, []>(2282304)))];
            tensor<fp16, [1, 1024, 160]> x_97_cast_fp16 = layer_norm(axes = x_97_axes_1, beta = model_backbone_layers_2_1_1_norm2_bias_to_fp16, epsilon = var_50_to_fp16, gamma = model_backbone_layers_2_1_1_norm2_weight_to_fp16, x = input_103_cast_fp16)[name = tensor<string, []>("x_97_cast_fp16")];
            tensor<int32, [3]> var_1097_perm_1 = const()[name = tensor<string, []>("op_1097_perm_1"), val = tensor<int32, [3]>([0, 2, 1])];
            tensor<int32, [4]> var_1098 = const()[name = tensor<string, []>("op_1098"), val = tensor<int32, [4]>([1, 160, 32, 32])];
            tensor<fp16, [1, 160, 1024]> transpose_60 = transpose(perm = var_1097_perm_1, x = x_97_cast_fp16)[name = tensor<string, []>("transpose_60")];
            tensor<fp16, [1, 160, 32, 32]> x_99_cast_fp16 = reshape(shape = var_1098, x = transpose_60)[name = tensor<string, []>("x_99_cast_fp16")];
            tensor<int32, [2]> var_1105 = const()[name = tensor<string, []>("op_1105"), val = tensor<int32, [2]>([1, 1])];
            tensor<int32, [2]> var_1107 = const()[name = tensor<string, []>("op_1107"), val = tensor<int32, [2]>([1, 1])];
            tensor<string, []> x_101_pad_type_1 = const()[name = tensor<string, []>("x_101_pad_type_1"), val = tensor<string, []>("custom")];
            tensor<int32, [4]> x_101_pad_1 = const()[name = tensor<string, []>("x_101_pad_1"), val = tensor<int32, [4]>([0, 0, 0, 0])];
            tensor<fp16, [640, 160, 1, 1]> model_backbone_layers_2_1_1_ffn_layers_0_weight_to_fp16 = const()[name = tensor<string, []>("model_backbone_layers_2_1_1_ffn_layers_0_weight_to_fp16"), val = tensor<fp16, [640, 160, 1, 1]>(BLOBFILE(path = tensor<string, []>("@model_path/weights/weight.bin"), offset = tensor<uint64, []>(2282688)))];
            tensor<fp16, [640]> model_backbone_layers_2_1_1_ffn_layers_0_bias_to_fp16 = const()[name = tensor<string, []>("model_backbone_layers_2_1_1_ffn_layers_0_bias_to_fp16"), val = tensor<fp16, [640]>(BLOBFILE(path = tensor<string, []>("@model_path/weights/weight.bin"), offset = tensor<uint64, []>(2487552)))];
            tensor<fp16, [1, 640, 32, 32]> x_101_cast_fp16 = conv(bias = model_backbone_layers_2_1_1_ffn_layers_0_bias_to_fp16, dilations = var_1107, groups = var_45, pad = x_101_pad_1, pad_type = x_101_pad_type_1, strides = var_1105, weight = model_backbone_layers_2_1_1_ffn_layers_0_weight_to_fp16, x = x_99_cast_fp16)[name = tensor<string, []>("x_101_cast_fp16")];
            tensor<int32, [2]> var_1112 = const()[name = tensor<string, []>("op_1112"), val = tensor<int32, [2]>([1, 1])];
            tensor<int32, [2]> var_1114 = const()[name = tensor<string, []>("op_1114"), val = tensor<int32, [2]>([1, 1])];
            tensor<string, []> input_105_pad_type_1 = const()[name = tensor<string, []>("input_105_pad_type_1"), val = tensor<string, []>("custom")];
            tensor<int32, [4]> input_105_pad_1 = const()[name = tensor<string, []>("input_105_pad_1"), val = tensor<int32, [4]>([1, 1, 1, 1])];
            tensor<fp16, [640, 1, 3, 3]> model_backbone_layers_2_1_1_ffn_layers_1_weight_to_fp16 = const()[name = tensor<string, []>("model_backbone_layers_2_1_1_ffn_layers_1_weight_to_fp16"), val = tensor<fp16, [640, 1, 3, 3]>(BLOBFILE(path = tensor<string, []>("@model_path/weights/weight.bin"), offset = tensor<uint64, []>(2488896)))];
            tensor<fp16, [640]> model_backbone_layers_2_1_1_ffn_layers_1_bias_to_fp16 = const()[name = tensor<string, []>("model_backbone_layers_2_1_1_ffn_layers_1_bias_to_fp16"), val = tensor<fp16, [640]>(BLOBFILE(path = tensor<string, []>("@model_path/weights/weight.bin"), offset = tensor<uint64, []>(2500480)))];
            tensor<fp16, [1, 640, 32, 32]> input_105_cast_fp16 = conv(bias = model_backbone_layers_2_1_1_ffn_layers_1_bias_to_fp16, dilations = var_1114, groups = var_29, pad = input_105_pad_1, pad_type = input_105_pad_type_1, strides = var_1112, weight = model_backbone_layers_2_1_1_ffn_layers_1_weight_to_fp16, x = x_101_cast_fp16)[name = tensor<string, []>("input_105_cast_fp16")];
            tensor<string, []> input_107_mode_1 = const()[name = tensor<string, []>("input_107_mode_1"), val = tensor<string, []>("EXACT")];
            tensor<fp16, [1, 640, 32, 32]> input_107_cast_fp16 = gelu(mode = input_107_mode_1, x = input_105_cast_fp16)[name = tensor<string, []>("input_107_cast_fp16")];
            tensor<int32, [2]> var_1121 = const()[name = tensor<string, []>("op_1121"), val = tensor<int32, [2]>([1, 1])];
            tensor<int32, [2]> var_1123 = const()[name = tensor<string, []>("op_1123"), val = tensor<int32, [2]>([1, 1])];
            tensor<string, []> input_109_pad_type_1 = const()[name = tensor<string, []>("input_109_pad_type_1"), val = tensor<string, []>("custom")];
            tensor<int32, [4]> input_109_pad_1 = const()[name = tensor<string, []>("input_109_pad_1"), val = tensor<int32, [4]>([0, 0, 0, 0])];
            tensor<fp16, [160, 640, 1, 1]> model_backbone_layers_2_1_1_ffn_layers_4_weight_to_fp16 = const()[name = tensor<string, []>("model_backbone_layers_2_1_1_ffn_layers_4_weight_to_fp16"), val = tensor<fp16, [160, 640, 1, 1]>(BLOBFILE(path = tensor<string, []>("@model_path/weights/weight.bin"), offset = tensor<uint64, []>(2501824)))];
            tensor<fp16, [160]> model_backbone_layers_2_1_1_ffn_layers_4_bias_to_fp16 = const()[name = tensor<string, []>("model_backbone_layers_2_1_1_ffn_layers_4_bias_to_fp16"), val = tensor<fp16, [160]>(BLOBFILE(path = tensor<string, []>("@model_path/weights/weight.bin"), offset = tensor<uint64, []>(2706688)))];
            tensor<fp16, [1, 160, 32, 32]> input_109_cast_fp16 = conv(bias = model_backbone_layers_2_1_1_ffn_layers_4_bias_to_fp16, dilations = var_1123, groups = var_45, pad = input_109_pad_1, pad_type = input_109_pad_type_1, strides = var_1121, weight = model_backbone_layers_2_1_1_ffn_layers_4_weight_to_fp16, x = input_107_cast_fp16)[name = tensor<string, []>("input_109_cast_fp16")];
            tensor<int32, [3]> concat_32 = const()[name = tensor<string, []>("concat_32"), val = tensor<int32, [3]>([1, 160, 1024])];
            tensor<fp16, [1, 160, 1024]> var_1127_cast_fp16 = reshape(shape = concat_32, x = input_109_cast_fp16)[name = tensor<string, []>("op_1127_cast_fp16")];
            tensor<int32, [3]> var_1128_perm_1 = const()[name = tensor<string, []>("op_1128_perm_1"), val = tensor<int32, [3]>([0, 2, 1])];
            tensor<fp16, [1, 1024, 160]> transpose_59 = transpose(perm = var_1128_perm_1, x = var_1127_cast_fp16)[name = tensor<string, []>("transpose_59")];
            tensor<fp16, [1, 1024, 160]> input_111_cast_fp16 = add(x = input_103_cast_fp16, y = transpose_59)[name = tensor<string, []>("input_111_cast_fp16")];
            tensor<int32, [1]> x_107_axes_1 = const()[name = tensor<string, []>("x_107_axes_1"), val = tensor<int32, [1]>([-1])];
            tensor<fp16, [160]> model_backbone_layers_2_2_weight_to_fp16 = const()[name = tensor<string, []>("model_backbone_layers_2_2_weight_to_fp16"), val = tensor<fp16, [160]>(BLOBFILE(path = tensor<string, []>("@model_path/weights/weight.bin"), offset = tensor<uint64, []>(2707072)))];
            tensor<fp16, [160]> model_backbone_layers_2_2_bias_to_fp16 = const()[name = tensor<string, []>("model_backbone_layers_2_2_bias_to_fp16"), val = tensor<fp16, [160]>(BLOBFILE(path = tensor<string, []>("@model_path/weights/weight.bin"), offset = tensor<uint64, []>(2707456)))];
            tensor<fp16, [1, 1024, 160]> x_107_cast_fp16 = layer_norm(axes = x_107_axes_1, beta = model_backbone_layers_2_2_bias_to_fp16, epsilon = var_50_to_fp16, gamma = model_backbone_layers_2_2_weight_to_fp16, x = input_111_cast_fp16)[name = tensor<string, []>("x_107_cast_fp16")];
            tensor<int32, [3]> var_1137_perm_1 = const()[name = tensor<string, []>("op_1137_perm_1"), val = tensor<int32, [3]>([0, 2, 1])];
            tensor<int32, [4]> var_1138 = const()[name = tensor<string, []>("op_1138"), val = tensor<int32, [4]>([1, 160, 32, 32])];
            tensor<fp16, [1, 160, 1024]> transpose_58 = transpose(perm = var_1137_perm_1, x = x_107_cast_fp16)[name = tensor<string, []>("transpose_58")];
            tensor<fp16, [1, 160, 32, 32]> input_113_cast_fp16 = reshape(shape = var_1138, x = transpose_58)[name = tensor<string, []>("input_113_cast_fp16")];
            tensor<int32, [2]> var_1144 = const()[name = tensor<string, []>("op_1144"), val = tensor<int32, [2]>([2, 2])];
            tensor<int32, [2]> var_1146 = const()[name = tensor<string, []>("op_1146"), val = tensor<int32, [2]>([1, 1])];
            tensor<string, []> x_109_pad_type_1 = const()[name = tensor<string, []>("x_109_pad_type_1"), val = tensor<string, []>("custom")];
            tensor<int32, [4]> x_109_pad_1 = const()[name = tensor<string, []>("x_109_pad_1"), val = tensor<int32, [4]>([1, 1, 1, 1])];
            tensor<fp16, [256, 160, 3, 3]> model_backbone_layers_3_0_projection_weight_to_fp16 = const()[name = tensor<string, []>("model_backbone_layers_3_0_projection_weight_to_fp16"), val = tensor<fp16, [256, 160, 3, 3]>(BLOBFILE(path = tensor<string, []>("@model_path/weights/weight.bin"), offset = tensor<uint64, []>(2707840)))];
            tensor<fp16, [256]> model_backbone_layers_3_0_projection_bias_to_fp16 = const()[name = tensor<string, []>("model_backbone_layers_3_0_projection_bias_to_fp16"), val = tensor<fp16, [256]>(BLOBFILE(path = tensor<string, []>("@model_path/weights/weight.bin"), offset = tensor<uint64, []>(3445184)))];
            tensor<fp16, [1, 256, 16, 16]> x_109_cast_fp16 = conv(bias = model_backbone_layers_3_0_projection_bias_to_fp16, dilations = var_1146, groups = var_45, pad = x_109_pad_1, pad_type = x_109_pad_type_1, strides = var_1144, weight = model_backbone_layers_3_0_projection_weight_to_fp16, x = input_113_cast_fp16)[name = tensor<string, []>("x_109_cast_fp16")];
            tensor<int32, [3]> concat_33 = const()[name = tensor<string, []>("concat_33"), val = tensor<int32, [3]>([1, 256, 256])];
            tensor<fp16, [1, 256, 256]> var_1153_cast_fp16 = reshape(shape = concat_33, x = x_109_cast_fp16)[name = tensor<string, []>("op_1153_cast_fp16")];
            tensor<int32, [3]> input_115_perm_1 = const()[name = tensor<string, []>("input_115_perm_1"), val = tensor<int32, [3]>([0, 2, 1])];
            tensor<int32, [1]> input_117_axes_1 = const()[name = tensor<string, []>("input_117_axes_1"), val = tensor<int32, [1]>([-1])];
            tensor<fp16, [256]> model_backbone_layers_3_0_norm_weight_to_fp16 = const()[name = tensor<string, []>("model_backbone_layers_3_0_norm_weight_to_fp16"), val = tensor<fp16, [256]>(BLOBFILE(path = tensor<string, []>("@model_path/weights/weight.bin"), offset = tensor<uint64, []>(3445760)))];
            tensor<fp16, [256]> model_backbone_layers_3_0_norm_bias_to_fp16 = const()[name = tensor<string, []>("model_backbone_layers_3_0_norm_bias_to_fp16"), val = tensor<fp16, [256]>(BLOBFILE(path = tensor<string, []>("@model_path/weights/weight.bin"), offset = tensor<uint64, []>(3446336)))];
            tensor<fp16, [1, 256, 256]> transpose_57 = transpose(perm = input_115_perm_1, x = var_1153_cast_fp16)[name = tensor<string, []>("transpose_57")];
            tensor<fp16, [1, 256, 256]> input_117_cast_fp16 = layer_norm(axes = input_117_axes_1, beta = model_backbone_layers_3_0_norm_bias_to_fp16, epsilon = var_50_to_fp16, gamma = model_backbone_layers_3_0_norm_weight_to_fp16, x = transpose_57)[name = tensor<string, []>("input_117_cast_fp16")];
            tensor<int32, [1]> x_111_axes_1 = const()[name = tensor<string, []>("x_111_axes_1"), val = tensor<int32, [1]>([-1])];
            tensor<fp16, [256]> model_backbone_layers_3_1_0_norm1_weight_to_fp16 = const()[name = tensor<string, []>("model_backbone_layers_3_1_0_norm1_weight_to_fp16"), val = tensor<fp16, [256]>(BLOBFILE(path = tensor<string, []>("@model_path/weights/weight.bin"), offset = tensor<uint64, []>(3446912)))];
            tensor<fp16, [256]> model_backbone_layers_3_1_0_norm1_bias_to_fp16 = const()[name = tensor<string, []>("model_backbone_layers_3_1_0_norm1_bias_to_fp16"), val = tensor<fp16, [256]>(BLOBFILE(path = tensor<string, []>("@model_path/weights/weight.bin"), offset = tensor<uint64, []>(3447488)))];
            tensor<fp16, [1, 256, 256]> x_111_cast_fp16 = layer_norm(axes = x_111_axes_1, beta = model_backbone_layers_3_1_0_norm1_bias_to_fp16, epsilon = var_50_to_fp16, gamma = model_backbone_layers_3_1_0_norm1_weight_to_fp16, x = input_117_cast_fp16)[name = tensor<string, []>("x_111_cast_fp16")];
            tensor<int32, [3]> query_13_perm_1 = const()[name = tensor<string, []>("query_13_perm_1"), val = tensor<int32, [3]>([1, 0, 2])];
            tensor<fp16, [256, 256]> var_1202_0_to_fp16 = const()[name = tensor<string, []>("op_1202_0_to_fp16"), val = tensor<fp16, [256, 256]>(BLOBFILE(path = tensor<string, []>("@model_path/weights/weight.bin"), offset = tensor<uint64, []>(3448064)))];
            tensor<fp16, [256]> var_1209_0_to_fp16 = const()[name = tensor<string, []>("op_1209_0_to_fp16"), val = tensor<fp16, [256]>(BLOBFILE(path = tensor<string, []>("@model_path/weights/weight.bin"), offset = tensor<uint64, []>(3579200)))];
            tensor<fp16, [256, 1, 256]> transpose_56 = transpose(perm = query_13_perm_1, x = x_111_cast_fp16)[name = tensor<string, []>("transpose_56")];
            tensor<fp16, [256, 1, 256]> linear_42_cast_fp16 = linear(bias = var_1209_0_to_fp16, weight = var_1202_0_to_fp16, x = transpose_56)[name = tensor<string, []>("linear_42_cast_fp16")];
            tensor<fp16, [512, 256]> var_1202_1_to_fp16 = const()[name = tensor<string, []>("op_1202_1_to_fp16"), val = tensor<fp16, [512, 256]>(BLOBFILE(path = tensor<string, []>("@model_path/weights/weight.bin"), offset = tensor<uint64, []>(3579776)))];
            tensor<fp16, [512]> var_1209_1_to_fp16 = const()[name = tensor<string, []>("op_1209_1_to_fp16"), val = tensor<fp16, [512]>(BLOBFILE(path = tensor<string, []>("@model_path/weights/weight.bin"), offset = tensor<uint64, []>(3841984)))];
            tensor<fp16, [256, 1, 512]> linear_43_cast_fp16 = linear(bias = var_1209_1_to_fp16, weight = var_1202_1_to_fp16, x = transpose_56)[name = tensor<string, []>("linear_43_cast_fp16")];
            tensor<int32, [2]> var_1214_split_sizes_1 = const()[name = tensor<string, []>("op_1214_split_sizes_1"), val = tensor<int32, [2]>([256, 256])];
            tensor<int32, []> var_1214_axis_1 = const()[name = tensor<string, []>("op_1214_axis_1"), val = tensor<int32, []>(-1)];
            tensor<fp16, [256, 1, 256]> var_1214_cast_fp16_0, tensor<fp16, [256, 1, 256]> var_1214_cast_fp16_1 = split(axis = var_1214_axis_1, split_sizes = var_1214_split_sizes_1, x = linear_43_cast_fp16)[name = tensor<string, []>("op_1214_cast_fp16")];
            tensor<int32, [3]> var_1220 = const()[name = tensor<string, []>("op_1220"), val = tensor<int32, [3]>([256, 8, 32])];
            tensor<fp16, [256, 8, 32]> var_1221_cast_fp16 = reshape(shape = var_1220, x = linear_42_cast_fp16)[name = tensor<string, []>("op_1221_cast_fp16")];
            tensor<int32, [3]> var_1228 = const()[name = tensor<string, []>("op_1228"), val = tensor<int32, [3]>([256, 8, 32])];
            tensor<fp16, [256, 8, 32]> var_1229_cast_fp16 = reshape(shape = var_1228, x = var_1214_cast_fp16_0)[name = tensor<string, []>("op_1229_cast_fp16")];
            tensor<int32, [3]> var_1236 = const()[name = tensor<string, []>("op_1236"), val = tensor<int32, [3]>([256, 8, 32])];
            tensor<fp16, [256, 8, 32]> var_1237_cast_fp16 = reshape(shape = var_1236, x = var_1214_cast_fp16_1)[name = tensor<string, []>("op_1237_cast_fp16")];
            tensor<int32, [3]> v_27_perm_1 = const()[name = tensor<string, []>("v_27_perm_1"), val = tensor<int32, [3]>([1, 0, 2])];
            tensor<fp16, []> _inversed_q_scaled_13_y_0_to_fp16 = const()[name = tensor<string, []>("_inversed_q_scaled_13_y_0_to_fp16"), val = tensor<fp16, []>(0x1.6ap-3)];
            tensor<fp16, [256, 8, 32]> _inversed_q_scaled_13_cast_fp16 = mul(x = var_1221_cast_fp16, y = _inversed_q_scaled_13_y_0_to_fp16)[name = tensor<string, []>("_inversed_q_scaled_13_cast_fp16")];
            tensor<bool, []> input_119_transpose_x_1 = const()[name = tensor<string, []>("input_119_transpose_x_1"), val = tensor<bool, []>(false)];
            tensor<bool, []> input_119_transpose_y_1 = const()[name = tensor<string, []>("input_119_transpose_y_1"), val = tensor<bool, []>(false)];
            tensor<int32, [3]> transpose_36_perm_0 = const()[name = tensor<string, []>("transpose_36_perm_0"), val = tensor<int32, [3]>([1, 0, 2])];
            tensor<int32, [3]> transpose_37_perm_0 = const()[name = tensor<string, []>("transpose_37_perm_0"), val = tensor<int32, [3]>([1, 2, 0])];
            tensor<fp16, [8, 32, 256]> transpose_53 = transpose(perm = transpose_37_perm_0, x = var_1229_cast_fp16)[name = tensor<string, []>("transpose_53")];
            tensor<fp16, [8, 256, 32]> transpose_54 = transpose(perm = transpose_36_perm_0, x = _inversed_q_scaled_13_cast_fp16)[name = tensor<string, []>("transpose_54")];
            tensor<fp16, [8, 256, 256]> input_119_cast_fp16 = matmul(transpose_x = input_119_transpose_x_1, transpose_y = input_119_transpose_y_1, x = transpose_54, y = transpose_53)[name = tensor<string, []>("input_119_cast_fp16")];
            tensor<fp16, [8, 256, 256]> attn_output_weights_25_cast_fp16 = softmax(axis = var_49, x = input_119_cast_fp16)[name = tensor<string, []>("attn_output_weights_25_cast_fp16")];
            tensor<bool, []> attn_output_37_transpose_x_1 = const()[name = tensor<string, []>("attn_output_37_transpose_x_1"), val = tensor<bool, []>(false)];
            tensor<bool, []> attn_output_37_transpose_y_1 = const()[name = tensor<string, []>("attn_output_37_transpose_y_1"), val = tensor<bool, []>(false)];
            tensor<fp16, [8, 256, 32]> transpose_55 = transpose(perm = v_27_perm_1, x = var_1237_cast_fp16)[name = tensor<string, []>("transpose_55")];
            tensor<fp16, [8, 256, 32]> attn_output_37_cast_fp16 = matmul(transpose_x = attn_output_37_transpose_x_1, transpose_y = attn_output_37_transpose_y_1, x = attn_output_weights_25_cast_fp16, y = transpose_55)[name = tensor<string, []>("attn_output_37_cast_fp16")];
            tensor<int32, [3]> var_1245_perm_1 = const()[name = tensor<string, []>("op_1245_perm_1"), val = tensor<int32, [3]>([1, 0, 2])];
            tensor<int32, [2]> var_1249 = const()[name = tensor<string, []>("op_1249"), val = tensor<int32, [2]>([256, 256])];
            tensor<fp16, [256, 8, 32]> transpose_52 = transpose(perm = var_1245_perm_1, x = attn_output_37_cast_fp16)[name = tensor<string, []>("transpose_52")];
            tensor<fp16, [256, 256]> attn_output_39_cast_fp16 = reshape(shape = var_1249, x = transpose_52)[name = tensor<string, []>("attn_output_39_cast_fp16")];
            tensor<fp16, [256, 256]> model_backbone_layers_3_1_0_attn_attn_out_proj_weight_to_fp16 = const()[name = tensor<string, []>("model_backbone_layers_3_1_0_attn_attn_out_proj_weight_to_fp16"), val = tensor<fp16, [256, 256]>(BLOBFILE(path = tensor<string, []>("@model_path/weights/weight.bin"), offset = tensor<uint64, []>(3843072)))];
            tensor<fp16, [256]> model_backbone_layers_3_1_0_attn_attn_out_proj_bias_to_fp16 = const()[name = tensor<string, []>("model_backbone_layers_3_1_0_attn_attn_out_proj_bias_to_fp16"), val = tensor<fp16, [256]>(BLOBFILE(path = tensor<string, []>("@model_path/weights/weight.bin"), offset = tensor<uint64, []>(3974208)))];
            tensor<fp16, [256, 256]> linear_44_cast_fp16 = linear(bias = model_backbone_layers_3_1_0_attn_attn_out_proj_bias_to_fp16, weight = model_backbone_layers_3_1_0_attn_attn_out_proj_weight_to_fp16, x = attn_output_39_cast_fp16)[name = tensor<string, []>("linear_44_cast_fp16")];
            tensor<int32, [3]> var_1253 = const()[name = tensor<string, []>("op_1253"), val = tensor<int32, [3]>([256, 1, 256])];
            tensor<fp16, [256, 1, 256]> out_37_cast_fp16 = reshape(shape = var_1253, x = linear_44_cast_fp16)[name = tensor<string, []>("out_37_cast_fp16")];
            tensor<int32, [3]> input_121_perm_1 = const()[name = tensor<string, []>("input_121_perm_1"), val = tensor<int32, [3]>([1, 0, 2])];
            tensor<fp16, [1, 256, 256]> transpose_51 = transpose(perm = input_121_perm_1, x = out_37_cast_fp16)[name = tensor<string, []>("transpose_51")];
            tensor<fp16, [1, 256, 256]> input_123_cast_fp16 = add(x = input_117_cast_fp16, y = transpose_51)[name = tensor<string, []>("input_123_cast_fp16")];
            tensor<int32, [1]> x_113_axes_1 = const()[name = tensor<string, []>("x_113_axes_1"), val = tensor<int32, [1]>([-1])];
            tensor<fp16, [256]> model_backbone_layers_3_1_0_norm2_weight_to_fp16 = const()[name = tensor<string, []>("model_backbone_layers_3_1_0_norm2_weight_to_fp16"), val = tensor<fp16, [256]>(BLOBFILE(path = tensor<string, []>("@model_path/weights/weight.bin"), offset = tensor<uint64, []>(3974784)))];
            tensor<fp16, [256]> model_backbone_layers_3_1_0_norm2_bias_to_fp16 = const()[name = tensor<string, []>("model_backbone_layers_3_1_0_norm2_bias_to_fp16"), val = tensor<fp16, [256]>(BLOBFILE(path = tensor<string, []>("@model_path/weights/weight.bin"), offset = tensor<uint64, []>(3975360)))];
            tensor<fp16, [1, 256, 256]> x_113_cast_fp16 = layer_norm(axes = x_113_axes_1, beta = model_backbone_layers_3_1_0_norm2_bias_to_fp16, epsilon = var_50_to_fp16, gamma = model_backbone_layers_3_1_0_norm2_weight_to_fp16, x = input_123_cast_fp16)[name = tensor<string, []>("x_113_cast_fp16")];
            tensor<int32, [3]> var_1265_perm_1 = const()[name = tensor<string, []>("op_1265_perm_1"), val = tensor<int32, [3]>([0, 2, 1])];
            tensor<int32, [4]> var_1266 = const()[name = tensor<string, []>("op_1266"), val = tensor<int32, [4]>([1, 256, 16, 16])];
            tensor<fp16, [1, 256, 256]> transpose_50 = transpose(perm = var_1265_perm_1, x = x_113_cast_fp16)[name = tensor<string, []>("transpose_50")];
            tensor<fp16, [1, 256, 16, 16]> x_115_cast_fp16 = reshape(shape = var_1266, x = transpose_50)[name = tensor<string, []>("x_115_cast_fp16")];
            tensor<int32, [2]> var_1273 = const()[name = tensor<string, []>("op_1273"), val = tensor<int32, [2]>([1, 1])];
            tensor<int32, [2]> var_1275 = const()[name = tensor<string, []>("op_1275"), val = tensor<int32, [2]>([1, 1])];
            tensor<string, []> x_117_pad_type_1 = const()[name = tensor<string, []>("x_117_pad_type_1"), val = tensor<string, []>("custom")];
            tensor<int32, [4]> x_117_pad_1 = const()[name = tensor<string, []>("x_117_pad_1"), val = tensor<int32, [4]>([0, 0, 0, 0])];
            tensor<fp16, [1024, 256, 1, 1]> model_backbone_layers_3_1_0_ffn_layers_0_weight_to_fp16 = const()[name = tensor<string, []>("model_backbone_layers_3_1_0_ffn_layers_0_weight_to_fp16"), val = tensor<fp16, [1024, 256, 1, 1]>(BLOBFILE(path = tensor<string, []>("@model_path/weights/weight.bin"), offset = tensor<uint64, []>(3975936)))];
            tensor<fp16, [1024]> model_backbone_layers_3_1_0_ffn_layers_0_bias_to_fp16 = const()[name = tensor<string, []>("model_backbone_layers_3_1_0_ffn_layers_0_bias_to_fp16"), val = tensor<fp16, [1024]>(BLOBFILE(path = tensor<string, []>("@model_path/weights/weight.bin"), offset = tensor<uint64, []>(4500288)))];
            tensor<fp16, [1, 1024, 16, 16]> x_117_cast_fp16 = conv(bias = model_backbone_layers_3_1_0_ffn_layers_0_bias_to_fp16, dilations = var_1275, groups = var_45, pad = x_117_pad_1, pad_type = x_117_pad_type_1, strides = var_1273, weight = model_backbone_layers_3_1_0_ffn_layers_0_weight_to_fp16, x = x_115_cast_fp16)[name = tensor<string, []>("x_117_cast_fp16")];
            tensor<int32, [2]> var_1280 = const()[name = tensor<string, []>("op_1280"), val = tensor<int32, [2]>([1, 1])];
            tensor<int32, [2]> var_1282 = const()[name = tensor<string, []>("op_1282"), val = tensor<int32, [2]>([1, 1])];
            tensor<string, []> input_125_pad_type_1 = const()[name = tensor<string, []>("input_125_pad_type_1"), val = tensor<string, []>("custom")];
            tensor<int32, [4]> input_125_pad_1 = const()[name = tensor<string, []>("input_125_pad_1"), val = tensor<int32, [4]>([1, 1, 1, 1])];
            tensor<fp16, [1024, 1, 3, 3]> model_backbone_layers_3_1_0_ffn_layers_1_weight_to_fp16 = const()[name = tensor<string, []>("model_backbone_layers_3_1_0_ffn_layers_1_weight_to_fp16"), val = tensor<fp16, [1024, 1, 3, 3]>(BLOBFILE(path = tensor<string, []>("@model_path/weights/weight.bin"), offset = tensor<uint64, []>(4502400)))];
            tensor<fp16, [1024]> model_backbone_layers_3_1_0_ffn_layers_1_bias_to_fp16 = const()[name = tensor<string, []>("model_backbone_layers_3_1_0_ffn_layers_1_bias_to_fp16"), val = tensor<fp16, [1024]>(BLOBFILE(path = tensor<string, []>("@model_path/weights/weight.bin"), offset = tensor<uint64, []>(4520896)))];
            tensor<fp16, [1, 1024, 16, 16]> input_125_cast_fp16 = conv(bias = model_backbone_layers_3_1_0_ffn_layers_1_bias_to_fp16, dilations = var_1282, groups = var_27, pad = input_125_pad_1, pad_type = input_125_pad_type_1, strides = var_1280, weight = model_backbone_layers_3_1_0_ffn_layers_1_weight_to_fp16, x = x_117_cast_fp16)[name = tensor<string, []>("input_125_cast_fp16")];
            tensor<string, []> input_127_mode_1 = const()[name = tensor<string, []>("input_127_mode_1"), val = tensor<string, []>("EXACT")];
            tensor<fp16, [1, 1024, 16, 16]> input_127_cast_fp16 = gelu(mode = input_127_mode_1, x = input_125_cast_fp16)[name = tensor<string, []>("input_127_cast_fp16")];
            tensor<int32, [2]> var_1289 = const()[name = tensor<string, []>("op_1289"), val = tensor<int32, [2]>([1, 1])];
            tensor<int32, [2]> var_1291 = const()[name = tensor<string, []>("op_1291"), val = tensor<int32, [2]>([1, 1])];
            tensor<string, []> input_129_pad_type_1 = const()[name = tensor<string, []>("input_129_pad_type_1"), val = tensor<string, []>("custom")];
            tensor<int32, [4]> input_129_pad_1 = const()[name = tensor<string, []>("input_129_pad_1"), val = tensor<int32, [4]>([0, 0, 0, 0])];
            tensor<fp16, [256, 1024, 1, 1]> model_backbone_layers_3_1_0_ffn_layers_4_weight_to_fp16 = const()[name = tensor<string, []>("model_backbone_layers_3_1_0_ffn_layers_4_weight_to_fp16"), val = tensor<fp16, [256, 1024, 1, 1]>(BLOBFILE(path = tensor<string, []>("@model_path/weights/weight.bin"), offset = tensor<uint64, []>(4523008)))];
            tensor<fp16, [256]> model_backbone_layers_3_1_0_ffn_layers_4_bias_to_fp16 = const()[name = tensor<string, []>("model_backbone_layers_3_1_0_ffn_layers_4_bias_to_fp16"), val = tensor<fp16, [256]>(BLOBFILE(path = tensor<string, []>("@model_path/weights/weight.bin"), offset = tensor<uint64, []>(5047360)))];
            tensor<fp16, [1, 256, 16, 16]> input_129_cast_fp16 = conv(bias = model_backbone_layers_3_1_0_ffn_layers_4_bias_to_fp16, dilations = var_1291, groups = var_45, pad = input_129_pad_1, pad_type = input_129_pad_type_1, strides = var_1289, weight = model_backbone_layers_3_1_0_ffn_layers_4_weight_to_fp16, x = input_127_cast_fp16)[name = tensor<string, []>("input_129_cast_fp16")];
            tensor<int32, [3]> concat_34 = const()[name = tensor<string, []>("concat_34"), val = tensor<int32, [3]>([1, 256, 256])];
            tensor<fp16, [1, 256, 256]> var_1295_cast_fp16 = reshape(shape = concat_34, x = input_129_cast_fp16)[name = tensor<string, []>("op_1295_cast_fp16")];
            tensor<int32, [3]> var_1296_perm_1 = const()[name = tensor<string, []>("op_1296_perm_1"), val = tensor<int32, [3]>([0, 2, 1])];
            tensor<fp16, [1, 256, 256]> transpose_49 = transpose(perm = var_1296_perm_1, x = var_1295_cast_fp16)[name = tensor<string, []>("transpose_49")];
            tensor<fp16, [1, 256, 256]> input_131_cast_fp16 = add(x = input_123_cast_fp16, y = transpose_49)[name = tensor<string, []>("input_131_cast_fp16")];
            tensor<int32, [1]> x_123_axes_1 = const()[name = tensor<string, []>("x_123_axes_1"), val = tensor<int32, [1]>([-1])];
            tensor<fp16, [256]> model_backbone_layers_3_1_1_norm1_weight_to_fp16 = const()[name = tensor<string, []>("model_backbone_layers_3_1_1_norm1_weight_to_fp16"), val = tensor<fp16, [256]>(BLOBFILE(path = tensor<string, []>("@model_path/weights/weight.bin"), offset = tensor<uint64, []>(5047936)))];
            tensor<fp16, [256]> model_backbone_layers_3_1_1_norm1_bias_to_fp16 = const()[name = tensor<string, []>("model_backbone_layers_3_1_1_norm1_bias_to_fp16"), val = tensor<fp16, [256]>(BLOBFILE(path = tensor<string, []>("@model_path/weights/weight.bin"), offset = tensor<uint64, []>(5048512)))];
            tensor<fp16, [1, 256, 256]> x_123_cast_fp16 = layer_norm(axes = x_123_axes_1, beta = model_backbone_layers_3_1_1_norm1_bias_to_fp16, epsilon = var_50_to_fp16, gamma = model_backbone_layers_3_1_1_norm1_weight_to_fp16, x = input_131_cast_fp16)[name = tensor<string, []>("x_123_cast_fp16")];
            tensor<int32, [3]> query_perm_1 = const()[name = tensor<string, []>("query_perm_1"), val = tensor<int32, [3]>([1, 0, 2])];
            tensor<fp16, [256, 256]> var_1332_0_to_fp16 = const()[name = tensor<string, []>("op_1332_0_to_fp16"), val = tensor<fp16, [256, 256]>(BLOBFILE(path = tensor<string, []>("@model_path/weights/weight.bin"), offset = tensor<uint64, []>(5049088)))];
            tensor<fp16, [256]> var_1339_0_to_fp16 = const()[name = tensor<string, []>("op_1339_0_to_fp16"), val = tensor<fp16, [256]>(BLOBFILE(path = tensor<string, []>("@model_path/weights/weight.bin"), offset = tensor<uint64, []>(5180224)))];
            tensor<fp16, [256, 1, 256]> transpose_48 = transpose(perm = query_perm_1, x = x_123_cast_fp16)[name = tensor<string, []>("transpose_48")];
            tensor<fp16, [256, 1, 256]> linear_45_cast_fp16 = linear(bias = var_1339_0_to_fp16, weight = var_1332_0_to_fp16, x = transpose_48)[name = tensor<string, []>("linear_45_cast_fp16")];
            tensor<fp16, [512, 256]> var_1332_1_to_fp16 = const()[name = tensor<string, []>("op_1332_1_to_fp16"), val = tensor<fp16, [512, 256]>(BLOBFILE(path = tensor<string, []>("@model_path/weights/weight.bin"), offset = tensor<uint64, []>(5180800)))];
            tensor<fp16, [512]> var_1339_1_to_fp16 = const()[name = tensor<string, []>("op_1339_1_to_fp16"), val = tensor<fp16, [512]>(BLOBFILE(path = tensor<string, []>("@model_path/weights/weight.bin"), offset = tensor<uint64, []>(5443008)))];
            tensor<fp16, [256, 1, 512]> linear_46_cast_fp16 = linear(bias = var_1339_1_to_fp16, weight = var_1332_1_to_fp16, x = transpose_48)[name = tensor<string, []>("linear_46_cast_fp16")];
            tensor<int32, [2]> var_1344_split_sizes_1 = const()[name = tensor<string, []>("op_1344_split_sizes_1"), val = tensor<int32, [2]>([256, 256])];
            tensor<int32, []> var_1344_axis_1 = const()[name = tensor<string, []>("op_1344_axis_1"), val = tensor<int32, []>(-1)];
            tensor<fp16, [256, 1, 256]> var_1344_cast_fp16_0, tensor<fp16, [256, 1, 256]> var_1344_cast_fp16_1 = split(axis = var_1344_axis_1, split_sizes = var_1344_split_sizes_1, x = linear_46_cast_fp16)[name = tensor<string, []>("op_1344_cast_fp16")];
            tensor<int32, [3]> var_1350 = const()[name = tensor<string, []>("op_1350"), val = tensor<int32, [3]>([256, 8, 32])];
            tensor<fp16, [256, 8, 32]> var_1351_cast_fp16 = reshape(shape = var_1350, x = linear_45_cast_fp16)[name = tensor<string, []>("op_1351_cast_fp16")];
            tensor<int32, [3]> var_1358 = const()[name = tensor<string, []>("op_1358"), val = tensor<int32, [3]>([256, 8, 32])];
            tensor<fp16, [256, 8, 32]> var_1359_cast_fp16 = reshape(shape = var_1358, x = var_1344_cast_fp16_0)[name = tensor<string, []>("op_1359_cast_fp16")];
            tensor<int32, [3]> var_1366 = const()[name = tensor<string, []>("op_1366"), val = tensor<int32, [3]>([256, 8, 32])];
            tensor<fp16, [256, 8, 32]> var_1367_cast_fp16 = reshape(shape = var_1366, x = var_1344_cast_fp16_1)[name = tensor<string, []>("op_1367_cast_fp16")];
            tensor<int32, [3]> v_perm_1 = const()[name = tensor<string, []>("v_perm_1"), val = tensor<int32, [3]>([1, 0, 2])];
            tensor<fp16, []> _inversed_q_scaled_y_0_to_fp16 = const()[name = tensor<string, []>("_inversed_q_scaled_y_0_to_fp16"), val = tensor<fp16, []>(0x1.6ap-3)];
            tensor<fp16, [256, 8, 32]> _inversed_q_scaled_cast_fp16 = mul(x = var_1351_cast_fp16, y = _inversed_q_scaled_y_0_to_fp16)[name = tensor<string, []>("_inversed_q_scaled_cast_fp16")];
            tensor<bool, []> input_133_transpose_x_1 = const()[name = tensor<string, []>("input_133_transpose_x_1"), val = tensor<bool, []>(false)];
            tensor<bool, []> input_133_transpose_y_1 = const()[name = tensor<string, []>("input_133_transpose_y_1"), val = tensor<bool, []>(false)];
            tensor<int32, [3]> transpose_38_perm_0 = const()[name = tensor<string, []>("transpose_38_perm_0"), val = tensor<int32, [3]>([1, 0, 2])];
            tensor<int32, [3]> transpose_39_perm_0 = const()[name = tensor<string, []>("transpose_39_perm_0"), val = tensor<int32, [3]>([1, 2, 0])];
            tensor<fp16, [8, 32, 256]> transpose_45 = transpose(perm = transpose_39_perm_0, x = var_1359_cast_fp16)[name = tensor<string, []>("transpose_45")];
            tensor<fp16, [8, 256, 32]> transpose_46 = transpose(perm = transpose_38_perm_0, x = _inversed_q_scaled_cast_fp16)[name = tensor<string, []>("transpose_46")];
            tensor<fp16, [8, 256, 256]> input_133_cast_fp16 = matmul(transpose_x = input_133_transpose_x_1, transpose_y = input_133_transpose_y_1, x = transpose_46, y = transpose_45)[name = tensor<string, []>("input_133_cast_fp16")];
            tensor<fp16, [8, 256, 256]> attn_output_weights_29_cast_fp16 = softmax(axis = var_49, x = input_133_cast_fp16)[name = tensor<string, []>("attn_output_weights_29_cast_fp16")];
            tensor<bool, []> attn_output_43_transpose_x_1 = const()[name = tensor<string, []>("attn_output_43_transpose_x_1"), val = tensor<bool, []>(false)];
            tensor<bool, []> attn_output_43_transpose_y_1 = const()[name = tensor<string, []>("attn_output_43_transpose_y_1"), val = tensor<bool, []>(false)];
            tensor<fp16, [8, 256, 32]> transpose_47 = transpose(perm = v_perm_1, x = var_1367_cast_fp16)[name = tensor<string, []>("transpose_47")];
            tensor<fp16, [8, 256, 32]> attn_output_43_cast_fp16 = matmul(transpose_x = attn_output_43_transpose_x_1, transpose_y = attn_output_43_transpose_y_1, x = attn_output_weights_29_cast_fp16, y = transpose_47)[name = tensor<string, []>("attn_output_43_cast_fp16")];
            tensor<int32, [3]> var_1375_perm_1 = const()[name = tensor<string, []>("op_1375_perm_1"), val = tensor<int32, [3]>([1, 0, 2])];
            tensor<int32, [2]> var_1379 = const()[name = tensor<string, []>("op_1379"), val = tensor<int32, [2]>([256, 256])];
            tensor<fp16, [256, 8, 32]> transpose_44 = transpose(perm = var_1375_perm_1, x = attn_output_43_cast_fp16)[name = tensor<string, []>("transpose_44")];
            tensor<fp16, [256, 256]> attn_output_45_cast_fp16 = reshape(shape = var_1379, x = transpose_44)[name = tensor<string, []>("attn_output_45_cast_fp16")];
            tensor<fp16, [256, 256]> model_backbone_layers_3_1_1_attn_attn_out_proj_weight_to_fp16 = const()[name = tensor<string, []>("model_backbone_layers_3_1_1_attn_attn_out_proj_weight_to_fp16"), val = tensor<fp16, [256, 256]>(BLOBFILE(path = tensor<string, []>("@model_path/weights/weight.bin"), offset = tensor<uint64, []>(5444096)))];
            tensor<fp16, [256]> model_backbone_layers_3_1_1_attn_attn_out_proj_bias_to_fp16 = const()[name = tensor<string, []>("model_backbone_layers_3_1_1_attn_attn_out_proj_bias_to_fp16"), val = tensor<fp16, [256]>(BLOBFILE(path = tensor<string, []>("@model_path/weights/weight.bin"), offset = tensor<uint64, []>(5575232)))];
            tensor<fp16, [256, 256]> linear_47_cast_fp16 = linear(bias = model_backbone_layers_3_1_1_attn_attn_out_proj_bias_to_fp16, weight = model_backbone_layers_3_1_1_attn_attn_out_proj_weight_to_fp16, x = attn_output_45_cast_fp16)[name = tensor<string, []>("linear_47_cast_fp16")];
            tensor<int32, [3]> var_1383 = const()[name = tensor<string, []>("op_1383"), val = tensor<int32, [3]>([256, 1, 256])];
            tensor<fp16, [256, 1, 256]> out_43_cast_fp16 = reshape(shape = var_1383, x = linear_47_cast_fp16)[name = tensor<string, []>("out_43_cast_fp16")];
            tensor<int32, [3]> input_135_perm_1 = const()[name = tensor<string, []>("input_135_perm_1"), val = tensor<int32, [3]>([1, 0, 2])];
            tensor<fp16, [1, 256, 256]> transpose_43 = transpose(perm = input_135_perm_1, x = out_43_cast_fp16)[name = tensor<string, []>("transpose_43")];
            tensor<fp16, [1, 256, 256]> input_137_cast_fp16 = add(x = input_131_cast_fp16, y = transpose_43)[name = tensor<string, []>("input_137_cast_fp16")];
            tensor<int32, [1]> x_125_axes_1 = const()[name = tensor<string, []>("x_125_axes_1"), val = tensor<int32, [1]>([-1])];
            tensor<fp16, [256]> model_backbone_layers_3_1_1_norm2_weight_to_fp16 = const()[name = tensor<string, []>("model_backbone_layers_3_1_1_norm2_weight_to_fp16"), val = tensor<fp16, [256]>(BLOBFILE(path = tensor<string, []>("@model_path/weights/weight.bin"), offset = tensor<uint64, []>(5575808)))];
            tensor<fp16, [256]> model_backbone_layers_3_1_1_norm2_bias_to_fp16 = const()[name = tensor<string, []>("model_backbone_layers_3_1_1_norm2_bias_to_fp16"), val = tensor<fp16, [256]>(BLOBFILE(path = tensor<string, []>("@model_path/weights/weight.bin"), offset = tensor<uint64, []>(5576384)))];
            tensor<fp16, [1, 256, 256]> x_125_cast_fp16 = layer_norm(axes = x_125_axes_1, beta = model_backbone_layers_3_1_1_norm2_bias_to_fp16, epsilon = var_50_to_fp16, gamma = model_backbone_layers_3_1_1_norm2_weight_to_fp16, x = input_137_cast_fp16)[name = tensor<string, []>("x_125_cast_fp16")];
            tensor<int32, [3]> var_1395_perm_1 = const()[name = tensor<string, []>("op_1395_perm_1"), val = tensor<int32, [3]>([0, 2, 1])];
            tensor<int32, [4]> var_1396 = const()[name = tensor<string, []>("op_1396"), val = tensor<int32, [4]>([1, 256, 16, 16])];
            tensor<fp16, [1, 256, 256]> transpose_42 = transpose(perm = var_1395_perm_1, x = x_125_cast_fp16)[name = tensor<string, []>("transpose_42")];
            tensor<fp16, [1, 256, 16, 16]> x_127_cast_fp16 = reshape(shape = var_1396, x = transpose_42)[name = tensor<string, []>("x_127_cast_fp16")];
            tensor<int32, [2]> var_1403 = const()[name = tensor<string, []>("op_1403"), val = tensor<int32, [2]>([1, 1])];
            tensor<int32, [2]> var_1405 = const()[name = tensor<string, []>("op_1405"), val = tensor<int32, [2]>([1, 1])];
            tensor<string, []> x_129_pad_type_1 = const()[name = tensor<string, []>("x_129_pad_type_1"), val = tensor<string, []>("custom")];
            tensor<int32, [4]> x_129_pad_1 = const()[name = tensor<string, []>("x_129_pad_1"), val = tensor<int32, [4]>([0, 0, 0, 0])];
            tensor<fp16, [1024, 256, 1, 1]> model_backbone_layers_3_1_1_ffn_layers_0_weight_to_fp16 = const()[name = tensor<string, []>("model_backbone_layers_3_1_1_ffn_layers_0_weight_to_fp16"), val = tensor<fp16, [1024, 256, 1, 1]>(BLOBFILE(path = tensor<string, []>("@model_path/weights/weight.bin"), offset = tensor<uint64, []>(5576960)))];
            tensor<fp16, [1024]> model_backbone_layers_3_1_1_ffn_layers_0_bias_to_fp16 = const()[name = tensor<string, []>("model_backbone_layers_3_1_1_ffn_layers_0_bias_to_fp16"), val = tensor<fp16, [1024]>(BLOBFILE(path = tensor<string, []>("@model_path/weights/weight.bin"), offset = tensor<uint64, []>(6101312)))];
            tensor<fp16, [1, 1024, 16, 16]> x_129_cast_fp16 = conv(bias = model_backbone_layers_3_1_1_ffn_layers_0_bias_to_fp16, dilations = var_1405, groups = var_45, pad = x_129_pad_1, pad_type = x_129_pad_type_1, strides = var_1403, weight = model_backbone_layers_3_1_1_ffn_layers_0_weight_to_fp16, x = x_127_cast_fp16)[name = tensor<string, []>("x_129_cast_fp16")];
            tensor<int32, [2]> var_1410 = const()[name = tensor<string, []>("op_1410"), val = tensor<int32, [2]>([1, 1])];
            tensor<int32, [2]> var_1412 = const()[name = tensor<string, []>("op_1412"), val = tensor<int32, [2]>([1, 1])];
            tensor<string, []> input_139_pad_type_1 = const()[name = tensor<string, []>("input_139_pad_type_1"), val = tensor<string, []>("custom")];
            tensor<int32, [4]> input_139_pad_1 = const()[name = tensor<string, []>("input_139_pad_1"), val = tensor<int32, [4]>([1, 1, 1, 1])];
            tensor<fp16, [1024, 1, 3, 3]> model_backbone_layers_3_1_1_ffn_layers_1_weight_to_fp16 = const()[name = tensor<string, []>("model_backbone_layers_3_1_1_ffn_layers_1_weight_to_fp16"), val = tensor<fp16, [1024, 1, 3, 3]>(BLOBFILE(path = tensor<string, []>("@model_path/weights/weight.bin"), offset = tensor<uint64, []>(6103424)))];
            tensor<fp16, [1024]> model_backbone_layers_3_1_1_ffn_layers_1_bias_to_fp16 = const()[name = tensor<string, []>("model_backbone_layers_3_1_1_ffn_layers_1_bias_to_fp16"), val = tensor<fp16, [1024]>(BLOBFILE(path = tensor<string, []>("@model_path/weights/weight.bin"), offset = tensor<uint64, []>(6121920)))];
            tensor<fp16, [1, 1024, 16, 16]> input_139_cast_fp16 = conv(bias = model_backbone_layers_3_1_1_ffn_layers_1_bias_to_fp16, dilations = var_1412, groups = var_27, pad = input_139_pad_1, pad_type = input_139_pad_type_1, strides = var_1410, weight = model_backbone_layers_3_1_1_ffn_layers_1_weight_to_fp16, x = x_129_cast_fp16)[name = tensor<string, []>("input_139_cast_fp16")];
            tensor<string, []> input_141_mode_1 = const()[name = tensor<string, []>("input_141_mode_1"), val = tensor<string, []>("EXACT")];
            tensor<fp16, [1, 1024, 16, 16]> input_141_cast_fp16 = gelu(mode = input_141_mode_1, x = input_139_cast_fp16)[name = tensor<string, []>("input_141_cast_fp16")];
            tensor<int32, [2]> var_1419 = const()[name = tensor<string, []>("op_1419"), val = tensor<int32, [2]>([1, 1])];
            tensor<int32, [2]> var_1421 = const()[name = tensor<string, []>("op_1421"), val = tensor<int32, [2]>([1, 1])];
            tensor<string, []> input_143_pad_type_1 = const()[name = tensor<string, []>("input_143_pad_type_1"), val = tensor<string, []>("custom")];
            tensor<int32, [4]> input_143_pad_1 = const()[name = tensor<string, []>("input_143_pad_1"), val = tensor<int32, [4]>([0, 0, 0, 0])];
            tensor<fp16, [256, 1024, 1, 1]> model_backbone_layers_3_1_1_ffn_layers_4_weight_to_fp16 = const()[name = tensor<string, []>("model_backbone_layers_3_1_1_ffn_layers_4_weight_to_fp16"), val = tensor<fp16, [256, 1024, 1, 1]>(BLOBFILE(path = tensor<string, []>("@model_path/weights/weight.bin"), offset = tensor<uint64, []>(6124032)))];
            tensor<fp16, [256]> model_backbone_layers_3_1_1_ffn_layers_4_bias_to_fp16 = const()[name = tensor<string, []>("model_backbone_layers_3_1_1_ffn_layers_4_bias_to_fp16"), val = tensor<fp16, [256]>(BLOBFILE(path = tensor<string, []>("@model_path/weights/weight.bin"), offset = tensor<uint64, []>(6648384)))];
            tensor<fp16, [1, 256, 16, 16]> input_143_cast_fp16 = conv(bias = model_backbone_layers_3_1_1_ffn_layers_4_bias_to_fp16, dilations = var_1421, groups = var_45, pad = input_143_pad_1, pad_type = input_143_pad_type_1, strides = var_1419, weight = model_backbone_layers_3_1_1_ffn_layers_4_weight_to_fp16, x = input_141_cast_fp16)[name = tensor<string, []>("input_143_cast_fp16")];
            tensor<int32, [3]> concat_35 = const()[name = tensor<string, []>("concat_35"), val = tensor<int32, [3]>([1, 256, 256])];
            tensor<fp16, [1, 256, 256]> var_1425_cast_fp16 = reshape(shape = concat_35, x = input_143_cast_fp16)[name = tensor<string, []>("op_1425_cast_fp16")];
            tensor<int32, [3]> var_1426_perm_1 = const()[name = tensor<string, []>("op_1426_perm_1"), val = tensor<int32, [3]>([0, 2, 1])];
            tensor<fp16, [1, 256, 256]> transpose_41 = transpose(perm = var_1426_perm_1, x = var_1425_cast_fp16)[name = tensor<string, []>("transpose_41")];
            tensor<fp16, [1, 256, 256]> input_145_cast_fp16 = add(x = input_137_cast_fp16, y = transpose_41)[name = tensor<string, []>("input_145_cast_fp16")];
            tensor<int32, [1]> x_axes_1 = const()[name = tensor<string, []>("x_axes_1"), val = tensor<int32, [1]>([-1])];
            tensor<fp16, [256]> model_backbone_layers_3_2_weight_to_fp16 = const()[name = tensor<string, []>("model_backbone_layers_3_2_weight_to_fp16"), val = tensor<fp16, [256]>(BLOBFILE(path = tensor<string, []>("@model_path/weights/weight.bin"), offset = tensor<uint64, []>(6648960)))];
            tensor<fp16, [256]> model_backbone_layers_3_2_bias_to_fp16 = const()[name = tensor<string, []>("model_backbone_layers_3_2_bias_to_fp16"), val = tensor<fp16, [256]>(BLOBFILE(path = tensor<string, []>("@model_path/weights/weight.bin"), offset = tensor<uint64, []>(6649536)))];
            tensor<fp16, [1, 256, 256]> x_cast_fp16 = layer_norm(axes = x_axes_1, beta = model_backbone_layers_3_2_bias_to_fp16, epsilon = var_50_to_fp16, gamma = model_backbone_layers_3_2_weight_to_fp16, x = input_145_cast_fp16)[name = tensor<string, []>("x_cast_fp16")];
            tensor<int32, [3]> var_1435_perm_1 = const()[name = tensor<string, []>("op_1435_perm_1"), val = tensor<int32, [3]>([0, 2, 1])];
            tensor<int32, [4]> var_1436 = const()[name = tensor<string, []>("op_1436"), val = tensor<int32, [4]>([1, 256, 16, 16])];
            tensor<fp16, [1, 256, 256]> transpose_40 = transpose(perm = var_1435_perm_1, x = x_cast_fp16)[name = tensor<string, []>("transpose_40")];
            tensor<fp16, [1, 256, 16, 16]> input_165_cast_fp16 = reshape(shape = var_1436, x = transpose_40)[name = tensor<string, []>("input_165_cast_fp16")];
            tensor<int32, []> var_1446 = const()[name = tensor<string, []>("op_1446"), val = tensor<int32, []>(1)];
            tensor<int32, [2]> var_1453 = const()[name = tensor<string, []>("op_1453"), val = tensor<int32, [2]>([1, 1])];
            tensor<int32, [2]> var_1455 = const()[name = tensor<string, []>("op_1455"), val = tensor<int32, [2]>([1, 1])];
            tensor<string, []> input_147_pad_type_1 = const()[name = tensor<string, []>("input_147_pad_type_1"), val = tensor<string, []>("custom")];
            tensor<int32, [4]> input_147_pad_1 = const()[name = tensor<string, []>("input_147_pad_1"), val = tensor<int32, [4]>([0, 0, 0, 0])];
            tensor<fp16, [256, 32, 1, 1]> input_149_weight_0_to_fp16 = const()[name = tensor<string, []>("input_149_weight_0_to_fp16"), val = tensor<fp16, [256, 32, 1, 1]>(BLOBFILE(path = tensor<string, []>("@model_path/weights/weight.bin"), offset = tensor<uint64, []>(6650112)))];
            tensor<fp16, [256]> input_149_bias_0_to_fp16 = const()[name = tensor<string, []>("input_149_bias_0_to_fp16"), val = tensor<fp16, [256]>(BLOBFILE(path = tensor<string, []>("@model_path/weights/weight.bin"), offset = tensor<uint64, []>(6666560)))];
            tensor<fp16, [1, 256, 128, 128]> input_149_cast_fp16 = conv(bias = input_149_bias_0_to_fp16, dilations = var_1455, groups = var_1446, pad = input_147_pad_1, pad_type = input_147_pad_type_1, strides = var_1453, weight = input_149_weight_0_to_fp16, x = input_37_cast_fp16)[name = tensor<string, []>("input_149_cast_fp16")];
            tensor<fp16, [1, 256, 128, 128]> input_151_cast_fp16 = relu(x = input_149_cast_fp16)[name = tensor<string, []>("input_151_cast_fp16")];
            tensor<int32, []> var_1479 = const()[name = tensor<string, []>("op_1479"), val = tensor<int32, []>(1)];
            tensor<int32, [2]> var_1486 = const()[name = tensor<string, []>("op_1486"), val = tensor<int32, [2]>([1, 1])];
            tensor<int32, [2]> var_1488 = const()[name = tensor<string, []>("op_1488"), val = tensor<int32, [2]>([1, 1])];
            tensor<string, []> input_153_pad_type_1 = const()[name = tensor<string, []>("input_153_pad_type_1"), val = tensor<string, []>("custom")];
            tensor<int32, [4]> input_153_pad_1 = const()[name = tensor<string, []>("input_153_pad_1"), val = tensor<int32, [4]>([0, 0, 0, 0])];
            tensor<fp16, [256, 64, 1, 1]> input_155_weight_0_to_fp16 = const()[name = tensor<string, []>("input_155_weight_0_to_fp16"), val = tensor<fp16, [256, 64, 1, 1]>(BLOBFILE(path = tensor<string, []>("@model_path/weights/weight.bin"), offset = tensor<uint64, []>(6667136)))];
            tensor<fp16, [256]> input_155_bias_0_to_fp16 = const()[name = tensor<string, []>("input_155_bias_0_to_fp16"), val = tensor<fp16, [256]>(BLOBFILE(path = tensor<string, []>("@model_path/weights/weight.bin"), offset = tensor<uint64, []>(6699968)))];
            tensor<fp16, [1, 256, 64, 64]> input_155_cast_fp16 = conv(bias = input_155_bias_0_to_fp16, dilations = var_1488, groups = var_1479, pad = input_153_pad_1, pad_type = input_153_pad_type_1, strides = var_1486, weight = input_155_weight_0_to_fp16, x = input_75_cast_fp16)[name = tensor<string, []>("input_155_cast_fp16")];
            tensor<fp16, [1, 256, 64, 64]> input_157_cast_fp16 = relu(x = input_155_cast_fp16)[name = tensor<string, []>("input_157_cast_fp16")];
            tensor<fp32, []> var_1508_scale_factor_height_1 = const()[name = tensor<string, []>("op_1508_scale_factor_height_1"), val = tensor<fp32, []>(0x1p+1)];
            tensor<fp32, []> var_1508_scale_factor_width_1 = const()[name = tensor<string, []>("op_1508_scale_factor_width_1"), val = tensor<fp32, []>(0x1p+1)];
            tensor<bool, []> var_1508_align_corners_1 = const()[name = tensor<string, []>("op_1508_align_corners_1"), val = tensor<bool, []>(false)];
            tensor<fp16, [1, 256, 128, 128]> var_1508_cast_fp16 = upsample_bilinear(align_corners = var_1508_align_corners_1, scale_factor_height = var_1508_scale_factor_height_1, scale_factor_width = var_1508_scale_factor_width_1, x = input_157_cast_fp16)[name = tensor<string, []>("op_1508_cast_fp16")];
            tensor<int32, []> var_1512 = const()[name = tensor<string, []>("op_1512"), val = tensor<int32, []>(1)];
            tensor<int32, [2]> var_1519 = const()[name = tensor<string, []>("op_1519"), val = tensor<int32, [2]>([1, 1])];
            tensor<int32, [2]> var_1521 = const()[name = tensor<string, []>("op_1521"), val = tensor<int32, [2]>([1, 1])];
            tensor<string, []> input_159_pad_type_1 = const()[name = tensor<string, []>("input_159_pad_type_1"), val = tensor<string, []>("custom")];
            tensor<int32, [4]> input_159_pad_1 = const()[name = tensor<string, []>("input_159_pad_1"), val = tensor<int32, [4]>([0, 0, 0, 0])];
            tensor<fp16, [256, 160, 1, 1]> input_161_weight_0_to_fp16 = const()[name = tensor<string, []>("input_161_weight_0_to_fp16"), val = tensor<fp16, [256, 160, 1, 1]>(BLOBFILE(path = tensor<string, []>("@model_path/weights/weight.bin"), offset = tensor<uint64, []>(6700544)))];
            tensor<fp16, [256]> input_161_bias_0_to_fp16 = const()[name = tensor<string, []>("input_161_bias_0_to_fp16"), val = tensor<fp16, [256]>(BLOBFILE(path = tensor<string, []>("@model_path/weights/weight.bin"), offset = tensor<uint64, []>(6782528)))];
            tensor<fp16, [1, 256, 32, 32]> input_161_cast_fp16 = conv(bias = input_161_bias_0_to_fp16, dilations = var_1521, groups = var_1512, pad = input_159_pad_1, pad_type = input_159_pad_type_1, strides = var_1519, weight = input_161_weight_0_to_fp16, x = input_113_cast_fp16)[name = tensor<string, []>("input_161_cast_fp16")];
            tensor<fp16, [1, 256, 32, 32]> input_163_cast_fp16 = relu(x = input_161_cast_fp16)[name = tensor<string, []>("input_163_cast_fp16")];
            tensor<fp32, []> var_1541_scale_factor_height_1 = const()[name = tensor<string, []>("op_1541_scale_factor_height_1"), val = tensor<fp32, []>(0x1p+2)];
            tensor<fp32, []> var_1541_scale_factor_width_1 = const()[name = tensor<string, []>("op_1541_scale_factor_width_1"), val = tensor<fp32, []>(0x1p+2)];
            tensor<bool, []> var_1541_align_corners_1 = const()[name = tensor<string, []>("op_1541_align_corners_1"), val = tensor<bool, []>(false)];
            tensor<fp16, [1, 256, 128, 128]> var_1541_cast_fp16 = upsample_bilinear(align_corners = var_1541_align_corners_1, scale_factor_height = var_1541_scale_factor_height_1, scale_factor_width = var_1541_scale_factor_width_1, x = input_163_cast_fp16)[name = tensor<string, []>("op_1541_cast_fp16")];
            tensor<int32, []> var_1545 = const()[name = tensor<string, []>("op_1545"), val = tensor<int32, []>(1)];
            tensor<int32, [2]> var_1552 = const()[name = tensor<string, []>("op_1552"), val = tensor<int32, [2]>([1, 1])];
            tensor<int32, [2]> var_1554 = const()[name = tensor<string, []>("op_1554"), val = tensor<int32, [2]>([1, 1])];
            tensor<string, []> input_167_pad_type_1 = const()[name = tensor<string, []>("input_167_pad_type_1"), val = tensor<string, []>("custom")];
            tensor<int32, [4]> input_167_pad_1 = const()[name = tensor<string, []>("input_167_pad_1"), val = tensor<int32, [4]>([0, 0, 0, 0])];
            tensor<fp16, [256, 256, 1, 1]> input_169_weight_0_to_fp16 = const()[name = tensor<string, []>("input_169_weight_0_to_fp16"), val = tensor<fp16, [256, 256, 1, 1]>(BLOBFILE(path = tensor<string, []>("@model_path/weights/weight.bin"), offset = tensor<uint64, []>(6783104)))];
            tensor<fp16, [256]> input_169_bias_0_to_fp16 = const()[name = tensor<string, []>("input_169_bias_0_to_fp16"), val = tensor<fp16, [256]>(BLOBFILE(path = tensor<string, []>("@model_path/weights/weight.bin"), offset = tensor<uint64, []>(6914240)))];
            tensor<fp16, [1, 256, 16, 16]> input_169_cast_fp16 = conv(bias = input_169_bias_0_to_fp16, dilations = var_1554, groups = var_1545, pad = input_167_pad_1, pad_type = input_167_pad_type_1, strides = var_1552, weight = input_169_weight_0_to_fp16, x = input_165_cast_fp16)[name = tensor<string, []>("input_169_cast_fp16")];
            tensor<fp16, [1, 256, 16, 16]> input_171_cast_fp16 = relu(x = input_169_cast_fp16)[name = tensor<string, []>("input_171_cast_fp16")];
            tensor<fp32, []> var_1574_scale_factor_height_1 = const()[name = tensor<string, []>("op_1574_scale_factor_height_1"), val = tensor<fp32, []>(0x1p+3)];
            tensor<fp32, []> var_1574_scale_factor_width_1 = const()[name = tensor<string, []>("op_1574_scale_factor_width_1"), val = tensor<fp32, []>(0x1p+3)];
            tensor<bool, []> var_1574_align_corners_1 = const()[name = tensor<string, []>("op_1574_align_corners_1"), val = tensor<bool, []>(false)];
            tensor<fp16, [1, 256, 128, 128]> var_1574_cast_fp16 = upsample_bilinear(align_corners = var_1574_align_corners_1, scale_factor_height = var_1574_scale_factor_height_1, scale_factor_width = var_1574_scale_factor_width_1, x = input_171_cast_fp16)[name = tensor<string, []>("op_1574_cast_fp16")];
            tensor<int32, []> var_1576 = const()[name = tensor<string, []>("op_1576"), val = tensor<int32, []>(1)];
            tensor<bool, []> input_173_interleave_1 = const()[name = tensor<string, []>("input_173_interleave_1"), val = tensor<bool, []>(false)];
            tensor<fp16, [1, 1024, 128, 128]> input_173_cast_fp16 = concat(axis = var_1576, interleave = input_173_interleave_1, values = (input_151_cast_fp16, var_1508_cast_fp16, var_1541_cast_fp16, var_1574_cast_fp16))[name = tensor<string, []>("input_173_cast_fp16")];
            tensor<int32, []> var_1581 = const()[name = tensor<string, []>("op_1581"), val = tensor<int32, []>(1)];
            tensor<int32, [2]> var_1588 = const()[name = tensor<string, []>("op_1588"), val = tensor<int32, [2]>([1, 1])];
            tensor<int32, [2]> var_1590 = const()[name = tensor<string, []>("op_1590"), val = tensor<int32, [2]>([1, 1])];
            tensor<string, []> input_175_pad_type_1 = const()[name = tensor<string, []>("input_175_pad_type_1"), val = tensor<string, []>("custom")];
            tensor<int32, [4]> input_175_pad_1 = const()[name = tensor<string, []>("input_175_pad_1"), val = tensor<int32, [4]>([0, 0, 0, 0])];
            tensor<fp16, [256, 1024, 1, 1]> input_177_weight_0_to_fp16 = const()[name = tensor<string, []>("input_177_weight_0_to_fp16"), val = tensor<fp16, [256, 1024, 1, 1]>(BLOBFILE(path = tensor<string, []>("@model_path/weights/weight.bin"), offset = tensor<uint64, []>(6914816)))];
            tensor<fp16, [256]> input_177_bias_0_to_fp16 = const()[name = tensor<string, []>("input_177_bias_0_to_fp16"), val = tensor<fp16, [256]>(BLOBFILE(path = tensor<string, []>("@model_path/weights/weight.bin"), offset = tensor<uint64, []>(7439168)))];
            tensor<fp16, [1, 256, 128, 128]> input_177_cast_fp16 = conv(bias = input_177_bias_0_to_fp16, dilations = var_1590, groups = var_1581, pad = input_175_pad_1, pad_type = input_175_pad_type_1, strides = var_1588, weight = input_177_weight_0_to_fp16, x = input_173_cast_fp16)[name = tensor<string, []>("input_177_cast_fp16")];
            tensor<fp16, [1, 256, 128, 128]> input_179_cast_fp16 = relu(x = input_177_cast_fp16)[name = tensor<string, []>("input_179_cast_fp16")];
            tensor<int32, []> var_1605 = const()[name = tensor<string, []>("op_1605"), val = tensor<int32, []>(1)];
            tensor<int32, [2]> var_1608 = const()[name = tensor<string, []>("op_1608"), val = tensor<int32, [2]>([1, 1])];
            tensor<int32, [2]> var_1610 = const()[name = tensor<string, []>("op_1610"), val = tensor<int32, [2]>([1, 1])];
            tensor<string, []> input_183_pad_type_1 = const()[name = tensor<string, []>("input_183_pad_type_1"), val = tensor<string, []>("custom")];
            tensor<int32, [4]> input_183_pad_1 = const()[name = tensor<string, []>("input_183_pad_1"), val = tensor<int32, [4]>([0, 0, 0, 0])];
            tensor<fp16, [8, 256, 1, 1]> model_decode_head_conv_seg_weight_to_fp16 = const()[name = tensor<string, []>("model_decode_head_conv_seg_weight_to_fp16"), val = tensor<fp16, [8, 256, 1, 1]>(BLOBFILE(path = tensor<string, []>("@model_path/weights/weight.bin"), offset = tensor<uint64, []>(7439744)))];
            tensor<fp16, [8]> model_decode_head_conv_seg_bias_to_fp16 = const()[name = tensor<string, []>("model_decode_head_conv_seg_bias_to_fp16"), val = tensor<fp16, [8]>([-0x1.38p-1, 0x1.024p-1, 0x1.b0cp-3, 0x1.4c8p-2, 0x1.4c8p-4, 0x1.c04p-5, 0x1.18p-1, 0x1.27cp-3])];
            tensor<fp16, [1, 8, 128, 128]> input_183_cast_fp16 = conv(bias = model_decode_head_conv_seg_bias_to_fp16, dilations = var_1610, groups = var_1605, pad = input_183_pad_1, pad_type = input_183_pad_type_1, strides = var_1608, weight = model_decode_head_conv_seg_weight_to_fp16, x = input_179_cast_fp16)[name = tensor<string, []>("input_183_cast_fp16")];
            tensor<fp32, []> input_scale_factor_height_1 = const()[name = tensor<string, []>("input_scale_factor_height_1"), val = tensor<fp32, []>(0x1p+2)];
            tensor<fp32, []> input_scale_factor_width_1 = const()[name = tensor<string, []>("input_scale_factor_width_1"), val = tensor<fp32, []>(0x1p+2)];
            tensor<bool, []> input_align_corners_1 = const()[name = tensor<string, []>("input_align_corners_1"), val = tensor<bool, []>(false)];
            tensor<fp16, [1, 8, 512, 512]> input_cast_fp16 = upsample_bilinear(align_corners = input_align_corners_1, scale_factor_height = input_scale_factor_height_1, scale_factor_width = input_scale_factor_width_1, x = input_183_cast_fp16)[name = tensor<string, []>("input_cast_fp16")];
            tensor<int32, []> var_1625 = const()[name = tensor<string, []>("op_1625"), val = tensor<int32, []>(1)];
            tensor<fp16, [1, 8, 512, 512]> out_49_cast_fp16 = softmax(axis = var_1625, x = input_cast_fp16)[name = tensor<string, []>("out_49_cast_fp16")];
            tensor<int32, []> var_1628 = const()[name = tensor<string, []>("op_1628"), val = tensor<int32, []>(1)];
            tensor<bool, []> var_1629 = const()[name = tensor<string, []>("op_1629"), val = tensor<bool, []>(false)];
            tensor<int32, [1, 512, 512]> out_51_cast_fp16 = reduce_argmax(axis = var_1628, keep_dims = var_1629, x = out_49_cast_fp16)[name = tensor<string, []>("out_51_cast_fp16")];
            tensor<int32, [1]> out_axes_1 = const()[name = tensor<string, []>("out_axes_1"), val = tensor<int32, [1]>([0])];
            tensor<int32, [1, 1, 512, 512]> out = expand_dims(axes = out_axes_1, x = out_51_cast_fp16)[name = tensor<string, []>("out")];
            tensor<int32, []> var_1633 = const()[name = tensor<string, []>("op_1633"), val = tensor<int32, []>(0)];
            tensor<bool, [1, 1, 512, 512]> var_1634 = equal(x = out, y = var_1633)[name = tensor<string, []>("op_1634")];
            tensor<string, []> var_1639_to_fp16_dtype_0 = const()[name = tensor<string, []>("op_1639_to_fp16_dtype_0"), val = tensor<string, []>("fp16")];
            tensor<fp16, []> var_1640_promoted_to_fp16 = const()[name = tensor<string, []>("op_1640_promoted_to_fp16"), val = tensor<fp16, []>(0x1.fep+7)];
            tensor<fp16, [1, 1, 512, 512]> cast_233 = cast(dtype = var_1639_to_fp16_dtype_0, x = var_1634)[name = tensor<string, []>("cast_233")];
            tensor<fp16, [1, 1, 512, 512]> var_1641_cast_fp16 = mul(x = cast_233, y = var_1640_promoted_to_fp16)[name = tensor<string, []>("op_1641_cast_fp16")];
            tensor<string, []> var_1641_cast_fp16_to_fp32_dtype_0 = const()[name = tensor<string, []>("op_1641_cast_fp16_to_fp32_dtype_0"), val = tensor<string, []>("fp32")];
            tensor<int32, []> var_1642 = const()[name = tensor<string, []>("op_1642"), val = tensor<int32, []>(1)];
            tensor<bool, [1, 1, 512, 512]> var_1643 = equal(x = out, y = var_1642)[name = tensor<string, []>("op_1643")];
            tensor<string, []> var_1648_to_fp16_dtype_0 = const()[name = tensor<string, []>("op_1648_to_fp16_dtype_0"), val = tensor<string, []>("fp16")];
            tensor<fp16, []> var_1649_promoted_to_fp16 = const()[name = tensor<string, []>("op_1649_promoted_to_fp16"), val = tensor<fp16, []>(0x1.fep+7)];
            tensor<fp16, [1, 1, 512, 512]> cast_231 = cast(dtype = var_1648_to_fp16_dtype_0, x = var_1643)[name = tensor<string, []>("cast_231")];
            tensor<fp16, [1, 1, 512, 512]> var_1650_cast_fp16 = mul(x = cast_231, y = var_1649_promoted_to_fp16)[name = tensor<string, []>("op_1650_cast_fp16")];
            tensor<string, []> var_1650_cast_fp16_to_fp32_dtype_0 = const()[name = tensor<string, []>("op_1650_cast_fp16_to_fp32_dtype_0"), val = tensor<string, []>("fp32")];
            tensor<int32, []> var_1651 = const()[name = tensor<string, []>("op_1651"), val = tensor<int32, []>(2)];
            tensor<bool, [1, 1, 512, 512]> var_1652 = equal(x = out, y = var_1651)[name = tensor<string, []>("op_1652")];
            tensor<string, []> var_1657_to_fp16_dtype_0 = const()[name = tensor<string, []>("op_1657_to_fp16_dtype_0"), val = tensor<string, []>("fp16")];
            tensor<fp16, []> var_1658_promoted_to_fp16 = const()[name = tensor<string, []>("op_1658_promoted_to_fp16"), val = tensor<fp16, []>(0x1.fep+7)];
            tensor<fp16, [1, 1, 512, 512]> cast_229 = cast(dtype = var_1657_to_fp16_dtype_0, x = var_1652)[name = tensor<string, []>("cast_229")];
            tensor<fp16, [1, 1, 512, 512]> var_1659_cast_fp16 = mul(x = cast_229, y = var_1658_promoted_to_fp16)[name = tensor<string, []>("op_1659_cast_fp16")];
            tensor<string, []> var_1659_cast_fp16_to_fp32_dtype_0 = const()[name = tensor<string, []>("op_1659_cast_fp16_to_fp32_dtype_0"), val = tensor<string, []>("fp32")];
            tensor<int32, []> var_1660 = const()[name = tensor<string, []>("op_1660"), val = tensor<int32, []>(3)];
            tensor<bool, [1, 1, 512, 512]> var_1661 = equal(x = out, y = var_1660)[name = tensor<string, []>("op_1661")];
            tensor<string, []> var_1666_to_fp16_dtype_0 = const()[name = tensor<string, []>("op_1666_to_fp16_dtype_0"), val = tensor<string, []>("fp16")];
            tensor<fp16, []> var_1667_promoted_to_fp16 = const()[name = tensor<string, []>("op_1667_promoted_to_fp16"), val = tensor<fp16, []>(0x1.fep+7)];
            tensor<fp16, [1, 1, 512, 512]> cast_227 = cast(dtype = var_1666_to_fp16_dtype_0, x = var_1661)[name = tensor<string, []>("cast_227")];
            tensor<fp16, [1, 1, 512, 512]> var_1668_cast_fp16 = mul(x = cast_227, y = var_1667_promoted_to_fp16)[name = tensor<string, []>("op_1668_cast_fp16")];
            tensor<string, []> var_1668_cast_fp16_to_fp32_dtype_0 = const()[name = tensor<string, []>("op_1668_cast_fp16_to_fp32_dtype_0"), val = tensor<string, []>("fp32")];
            tensor<int32, []> var_1669 = const()[name = tensor<string, []>("op_1669"), val = tensor<int32, []>(4)];
            tensor<bool, [1, 1, 512, 512]> var_1670 = equal(x = out, y = var_1669)[name = tensor<string, []>("op_1670")];
            tensor<string, []> var_1675_to_fp16_dtype_0 = const()[name = tensor<string, []>("op_1675_to_fp16_dtype_0"), val = tensor<string, []>("fp16")];
            tensor<fp16, []> var_1676_promoted_to_fp16 = const()[name = tensor<string, []>("op_1676_promoted_to_fp16"), val = tensor<fp16, []>(0x1.fep+7)];
            tensor<fp16, [1, 1, 512, 512]> cast_225 = cast(dtype = var_1675_to_fp16_dtype_0, x = var_1670)[name = tensor<string, []>("cast_225")];
            tensor<fp16, [1, 1, 512, 512]> var_1677_cast_fp16 = mul(x = cast_225, y = var_1676_promoted_to_fp16)[name = tensor<string, []>("op_1677_cast_fp16")];
            tensor<string, []> var_1677_cast_fp16_to_fp32_dtype_0 = const()[name = tensor<string, []>("op_1677_cast_fp16_to_fp32_dtype_0"), val = tensor<string, []>("fp32")];
            tensor<int32, []> var_1678 = const()[name = tensor<string, []>("op_1678"), val = tensor<int32, []>(5)];
            tensor<bool, [1, 1, 512, 512]> var_1679 = equal(x = out, y = var_1678)[name = tensor<string, []>("op_1679")];
            tensor<string, []> var_1684_to_fp16_dtype_0 = const()[name = tensor<string, []>("op_1684_to_fp16_dtype_0"), val = tensor<string, []>("fp16")];
            tensor<fp16, []> var_1685_promoted_to_fp16 = const()[name = tensor<string, []>("op_1685_promoted_to_fp16"), val = tensor<fp16, []>(0x1.fep+7)];
            tensor<fp16, [1, 1, 512, 512]> cast_223 = cast(dtype = var_1684_to_fp16_dtype_0, x = var_1679)[name = tensor<string, []>("cast_223")];
            tensor<fp16, [1, 1, 512, 512]> var_1686_cast_fp16 = mul(x = cast_223, y = var_1685_promoted_to_fp16)[name = tensor<string, []>("op_1686_cast_fp16")];
            tensor<string, []> var_1686_cast_fp16_to_fp32_dtype_0 = const()[name = tensor<string, []>("op_1686_cast_fp16_to_fp32_dtype_0"), val = tensor<string, []>("fp32")];
            tensor<int32, []> var_1687 = const()[name = tensor<string, []>("op_1687"), val = tensor<int32, []>(6)];
            tensor<bool, [1, 1, 512, 512]> var_1688 = equal(x = out, y = var_1687)[name = tensor<string, []>("op_1688")];
            tensor<string, []> var_1693_to_fp16_dtype_0 = const()[name = tensor<string, []>("op_1693_to_fp16_dtype_0"), val = tensor<string, []>("fp16")];
            tensor<fp16, []> var_1694_promoted_to_fp16 = const()[name = tensor<string, []>("op_1694_promoted_to_fp16"), val = tensor<fp16, []>(0x1.fep+7)];
            tensor<fp16, [1, 1, 512, 512]> cast_221 = cast(dtype = var_1693_to_fp16_dtype_0, x = var_1688)[name = tensor<string, []>("cast_221")];
            tensor<fp16, [1, 1, 512, 512]> var_1695_cast_fp16 = mul(x = cast_221, y = var_1694_promoted_to_fp16)[name = tensor<string, []>("op_1695_cast_fp16")];
            tensor<string, []> var_1695_cast_fp16_to_fp32_dtype_0 = const()[name = tensor<string, []>("op_1695_cast_fp16_to_fp32_dtype_0"), val = tensor<string, []>("fp32")];
            tensor<int32, []> var_1696 = const()[name = tensor<string, []>("op_1696"), val = tensor<int32, []>(7)];
            tensor<bool, [1, 1, 512, 512]> var_1697 = equal(x = out, y = var_1696)[name = tensor<string, []>("op_1697")];
            tensor<string, []> var_1702_to_fp16_dtype_0 = const()[name = tensor<string, []>("op_1702_to_fp16_dtype_0"), val = tensor<string, []>("fp16")];
            tensor<fp16, []> var_1703_promoted_to_fp16 = const()[name = tensor<string, []>("op_1703_promoted_to_fp16"), val = tensor<fp16, []>(0x1.fep+7)];
            tensor<fp16, [1, 1, 512, 512]> cast_219 = cast(dtype = var_1702_to_fp16_dtype_0, x = var_1697)[name = tensor<string, []>("cast_219")];
            tensor<fp16, [1, 1, 512, 512]> var_1704_cast_fp16 = mul(x = cast_219, y = var_1703_promoted_to_fp16)[name = tensor<string, []>("op_1704_cast_fp16")];
            tensor<string, []> var_1704_cast_fp16_to_fp32_dtype_0 = const()[name = tensor<string, []>("op_1704_cast_fp16_to_fp32_dtype_0"), val = tensor<string, []>("fp32")];
            tensor<int32, []> var_1705 = const()[name = tensor<string, []>("op_1705"), val = tensor<int32, []>(8)];
            tensor<bool, [1, 1, 512, 512]> var_1706 = equal(x = out, y = var_1705)[name = tensor<string, []>("op_1706")];
            tensor<string, []> var_1711_to_fp16_dtype_0 = const()[name = tensor<string, []>("op_1711_to_fp16_dtype_0"), val = tensor<string, []>("fp16")];
            tensor<fp16, []> var_1712_promoted_to_fp16 = const()[name = tensor<string, []>("op_1712_promoted_to_fp16"), val = tensor<fp16, []>(0x1.fep+7)];
            tensor<fp16, [1, 1, 512, 512]> cast_217 = cast(dtype = var_1711_to_fp16_dtype_0, x = var_1706)[name = tensor<string, []>("cast_217")];
            tensor<fp16, [1, 1, 512, 512]> var_1713_cast_fp16 = mul(x = cast_217, y = var_1712_promoted_to_fp16)[name = tensor<string, []>("op_1713_cast_fp16")];
            tensor<string, []> var_1713_cast_fp16_to_fp32_dtype_0 = const()[name = tensor<string, []>("op_1713_cast_fp16_to_fp32_dtype_0"), val = tensor<string, []>("fp32")];
            tensor<fp32, [1, 1, 512, 512]> out8 = cast(dtype = var_1713_cast_fp16_to_fp32_dtype_0, x = var_1713_cast_fp16)[name = tensor<string, []>("cast_216")];
            tensor<fp32, [1, 1, 512, 512]> out7 = cast(dtype = var_1704_cast_fp16_to_fp32_dtype_0, x = var_1704_cast_fp16)[name = tensor<string, []>("cast_218")];
            tensor<fp32, [1, 1, 512, 512]> out6 = cast(dtype = var_1695_cast_fp16_to_fp32_dtype_0, x = var_1695_cast_fp16)[name = tensor<string, []>("cast_220")];
            tensor<fp32, [1, 1, 512, 512]> out5 = cast(dtype = var_1686_cast_fp16_to_fp32_dtype_0, x = var_1686_cast_fp16)[name = tensor<string, []>("cast_222")];
            tensor<fp32, [1, 1, 512, 512]> out4 = cast(dtype = var_1677_cast_fp16_to_fp32_dtype_0, x = var_1677_cast_fp16)[name = tensor<string, []>("cast_224")];
            tensor<fp32, [1, 1, 512, 512]> out3 = cast(dtype = var_1668_cast_fp16_to_fp32_dtype_0, x = var_1668_cast_fp16)[name = tensor<string, []>("cast_226")];
            tensor<fp32, [1, 1, 512, 512]> out2 = cast(dtype = var_1659_cast_fp16_to_fp32_dtype_0, x = var_1659_cast_fp16)[name = tensor<string, []>("cast_228")];
            tensor<fp32, [1, 1, 512, 512]> out1 = cast(dtype = var_1650_cast_fp16_to_fp32_dtype_0, x = var_1650_cast_fp16)[name = tensor<string, []>("cast_230")];
            tensor<fp32, [1, 1, 512, 512]> out0 = cast(dtype = var_1641_cast_fp16_to_fp32_dtype_0, x = var_1641_cast_fp16)[name = tensor<string, []>("cast_232")];
        } -> (out0, out1, out2, out3, out4, out5, out6, out7, out8);
}